src/drl_agent/temp/pytorch_models/td7_agent_seed_40_20250619_checkpoint_actor.pth (torch, 820229 bytes, 8 tensors)

l0.weight f4 [256, 24]
00000000: 1c67 acbd f39e f23d 253d 15be 41fc 113d
00000010: 68ee 753e 06cb ce3d da9f 463d 9113 6bbe
00000020: 687f 44be 80be 98be 765b 1f3e 06b0 1a3d
00000030: 20e8 8f3e cd43 a83e 1755 133e 55c5 493d
00000040: 7479 503e ca73 12be 68b5 893d e8f2 14be
00000050: b47d 41be 7b2e 83be 1b56 ca3d bf77 833e
00000060: 82e7 e3bb f706 39be af80 1bbd 03bf a3be
00000070: d577 6cbe 69de a13e 684f 3d3e c409 863e
00000080: af50 4bbe 44b2 80bc 8e89 1ebe bd93 72be
00000090: 2fd0 923e b0de db3d cf22 463e 6cde 28bc
000000a0: 93eb 533c 768d babd 1920 5e3e 1d78 c03d
000000b0: 2968 dbbc 5062 d8be f8dc adbe 8312 953e
000000c0: 3f70 3fbd 51d6 a6bd e5bf 1fbe 520b a53d
000000d0: 33a7 88bd d935 d9bd c79b 473e fa03 0d3d
000000e0: f5d8 ac3d 7488 45bd ea37 8fbe cad8 09bd
000000f0: 3797 2fbe 8d09 8f3e 2604 dd3e 30f7 ce3e
00000100: 1878 423e 4edd 4dbe bbb4 233e ca38 fe3d
00000110: e626 71bb 9e77 91bc 9c35 8dbe cf95 f2bb
00000120: 9e07 1bbd aeed d93d 3614 813e 4f1f 54be
00000130: c7af 8ebe bb88 27be cbb4 1dbd a7d0 053e
00000140: a08d 0bbe 6579 90be 3ec3 febd 2b99 83bc
00000150: fdfc 42be 9157 8f3c 197d fa3d 4cf3 b2bd
00000160: 4662 553e 4375 8bbe ab79 abbd 2028 913d
00000170: 5cc3 ad3d 4fbc d9be 07e4 37be 951b e6bd
00000180: 2d13 493d ab3a cdbd 48aa 483e 9c6e 6ebd
00000190: 4048 a5bd f404 4f3d 5af9 903e 0524 25be
000001a0: 0cec 6fbe efe4 9ebe 099f 9abc 7a13 bbbd
000001b0: e986 2c3e dd55 c73c deaf 9d3e b32f 7c3e
000001c0: 2609 9bbe b0d3 a2be e892 52be 1455 313e
000001d0: 3334 72bd ce38 813e b269 0e3e f0e9 c4bd
000001e0: bfea fe3d 2949 233e a53b 8c3b c534 75be
000001f0: 15f7 8abe 775c 39be 79d6 453e 6ffb 7fbe
00000200: 09ff 35be 04e1 b23c 56a1 193e 10b2 6b3d
00000210: 49e5 163e 7bb0 92be 5cfd 3cbd 0af5 d7bc
00000220: 2be5 0f3e d39a 8fbd abb9 f9bd 52c6 ec3d
00000230: e78f 123e 512c 993e 217f 0fbe 8e8a 26be
00000240: 4992 3a3d 6686 3abe 1bac 0fbe ee39 783e
00000250: 47c5 dabd 51cb 8c3d 9ee3 f8bd ee77 983b
00000260: eb2c 293e cdf5 dbbe 37b5 d8be dd53 ac3b
00000270: d2de 2abe 4f46 9f3e edd4 523e d6be 97be
00000280: 839b 45be 8cc7 d43d 7790 343e e6cf fabd
00000290: 91c4 6e3c 9d3f 90be bd88 223e 02b9 d63d
000002a0: 0979 2e3e 5183 a5bd 66bf 363d 4449 06be
000002b0: c245 4ebe 9186 27be ea46 c03c 32ca 1cbd
000002c0: bc9d 3cbe 6d97 96bb 84fc 903e b6f1 c93d
000002d0: 9ec1 7bbb ddd6 473e b952 6bbe 165f 2ebe
000002e0: b7a1 29be 06a8 2abd 2508 613e bad2 2ebe
000002f0: 6c08 4bbe fa3d d03e c8af ab3d 880e 1ebd
00000300: 142b e6bc d1d7 c0bc 1a08 0c3e 2bb7 aa3d
00000310: a595 a5be 7393 dabe db42 7abe 776a e73e
00000320: 9618 233f 1635 723e 5051 9ebd 956e 71be
00000330: 6296 81be 92ae 03be 0fb9 4d3e e498 4f3e
00000340: 0e9a 68be b086 31be 7d78 c8bd 67f2 ee3d
00000350: 38ac 9ebd 3971 0c3d e2d9 f83d 15f5 513e
00000360: e1a4 4fbe 26eb 583d 36c0 583e 7bf6 803d
00000370: e3ce bc3d 4b6f a93e 09ed d5bb 5fbc fcbd
00000380: 5bd4 a7be a661 a7be 8b8b 123d bd63 923d
00000390: 1e69 6abd 286f 78be 9603 f8bd 8410 b7bd
000003a0: ff78 923e 48e3 0bbe 5708 523d d486 c53d
000003b0: b3c0 28be 8213 3bbb 2884 80be 9ff0 ad3d
000003c0: 4185 ad3d a03f 89bd e01d c0bd 34aa cfbc
000003d0: 941f 4bbe 4bb8 da3d 921e 5ebe 20b4 9cbd
000003e0: 33a5 853c 4510 6dbe 4522 b5bb 42d4 8f3e
000003f0: f8e9 a93e cb92 f53d 56ee 893e f676 963d
-0.08418104 0.118467234 -0.14574106 0.03564096 0.24016726 0.100973174 0.04849229 -0.22956683
-0.19189227 -0.2983284 0.15562233 0.037765525 0.28106785 0.32864228 0.14387928 0.049260456
0.2035883 -0.14301983 0.067240536 -0.14545786 -0.18895608 -0.256214 0.098797046 0.25677297
-0.006955088 -0.18069063 -0.03796452 -0.31981668 -0.23092587 0.31614998 0.18487322 0.26179326
-0.19854997 -0.015710004 -0.1548216 -0.2368917 0.28674456 0.10735834 0.19349216 -0.010306936
0.012934583 -0.09109013 0.21691932 0.0939791 -0.026783066 -0.42262506 -0.33957648 0.29115686
-0.046737906 -0.08146346 -0.15600546 0.080588 -0.06672516 -0.10605974 0.19493018 0.03442762
0.08439819 -0.048225835 -0.27972347 -0.03365401 -0.17147528 0.27936974 0.43167228 0.40422964
0.18991125 -0.20103952 0.15986912 0.124131754 -0.0036796867 -0.017757233 -0.27579963 -0.0074031125
-0.03784906 0.10641037 0.25210732 -0.20715068 -0.27868482 -0.16360752 -0.038502496 0.13067876
-0.13628244 -0.28217617 -0.12439583 -0.016064247 -0.1904182 0.01749781 0.12230892 -0.087378114
0.2083827 -0.272379 -0.08372816 0.07087731 0.084845275 -0.4252648 -0.1795808 -0.112357296
0.049090553 -0.10020956 0.19596207 -0.058210954 -0.08070421 0.050541833 0.2831524 -0.16127022
-0.23429888 -0.31034037 -0.018874662 -0.09134574 0.16848339 0.024332935 0.3079824 0.24627571
-0.30280417 -0.3180213 -0.20563853 0.17317611 -0.059131812 0.2523865 0.13907507 -0.096149325
0.12447118 0.15945877 0.004279571 -0.23945911 -0.27141634 -0.18101679 0.19320096 -0.24998258
-0.1777307 0.021835811 0.15002951 0.05754286 0.14735903 -0.2865027 -0.04614006 -0.02636196
0.14052264 -0.07011952 -0.121936165 0.11561264 0.14312707 0.29916623 -0.1401334 -0.16263792
0.045549665 -0.18215331 -0.14030497 0.24240848 -0.10682159 0.06874717 -0.121527895 0.0046529686
0.16521041 -0.4296097 -0.42325756 0.0052590207 -0.16686562 0.3110833 0.20589037 -0.29637784
-0.19297604 0.10389623 0.17633234 -0.12246685 0.014573232 -0.28173533 0.15872474 0.10484506
0.17038359 -0.08081687 0.044616126 -0.13113886 -0.20143798 -0.16359927 0.023471314 -0.038278766
-0.18419546 -0.004595688 0.28317654 0.09860556 -0.0038414965 0.19515558 -0.22980775 -0.1702846
-0.16565596 -0.041664146 0.21975763 -0.17072573 -0.19827431 0.40672284 0.08383137 -0.038588077
-0.028096713 -0.02354041 0.13674966 0.08335718 -0.32340732 -0.4269062 -0.24439566 0.45198414
0.6370939 0.23653063 -0.07730353 -0.2357734 -0.25310045 -0.12859562 0.20090126 0.20273167
-0.22715017 -0.17336535 -0.09788606 0.11667328 -0.07747692 0.034287665 0.12150933 0.20503648
-0.2027774 0.05295863 0.21167073 0.062970124 0.09219148 0.33092722 -0.006528501 -0.123406164
-0.32779202 -0.32691687 0.03577761 0.0714793 -0.057229154 -0.24261153 -0.12110059 -0.08938697
0.28607938 -0.1366092 0.051277485 0.09644857 -0.16479759 -0.0028545563 -0.25100827 0.084931605
0.08472682 -0.06701589 -0.09380698 -0.025349714 -0.19836265 0.10679682 -0.21691349 -0.076515436
0.016314125 -0.23150738 -0.005527767 0.28091627 0.33186316 0.11990889 0.26939648 0.07346909

l0.bias f4 [256]
00000000: 9f17 e43d 4915 abbe d78d 05bf 5a0d 3f3f
00000010: ceb9 253f 835c f4be aed4 1d3f 3b11 dc3e
00000020: 6ccc f43e 638c f73e 0323 163f 5485 663e
00000030: e4c4 07be 73ba 1e3f 1fa9 a1be c4f6 063e
00000040: 4cac cb3e c438 3b3f 9833 193f c529 4fbe
00000050: 7ec9 cebe a72f d4be e670 0c3e fe28 60bc
00000060: eed6 003e 3336 d6be fe04 bd3c 7340 32bf
00000070: fa42 cf3e a056 943d 721d 0b3f 7da2 b3be
00000080: 1e65 b73e f4fc d7be 9554 293e 2fa7 033e
00000090: 9728 bcbe 7ab3 573f fe49 043e cd40 a4be
000000a0: 646a 213e 87b7 0dbf a034 ad3e f8e7 80be
000000b0: 91f6 c83e f84b 193f 7685 453f 574c bebc
000000c0: 74fd 2dbe dfd6 533f 450d 953e 62fb 5c3e
000000d0: ff11 0a3f 5b3a 1bbf 8230 a6be 7959 46bd
000000e0: febe 20bc 4223 ffbd 196a 13be 1e56 c9bd
000000f0: 2b3b 113f f83f 7cbc d7bf 043f 7158 ab3d
00000100: 039b e63e b5bb 1cbf b459 70be be3d bcbd
00000110: ce41 8b3d 4cbe dc3e b21f 203e 361d e93e
00000120: d2ca a63e 1a68 21be 528a 7c3d 3b06 f93e
00000130: a336 02be 5348 c1be 47fb d73e 7631 1bbe
00000140: a878 e0be 6418 dd3e 2887 5c3c 7736 60be
00000150: c009 f13e e96f 9ebe 15a9 22bd 4d4c 983e
00000160: dc95 d03b 562a bc3e 2445 b93e 2380 7f3e
00000170: e4b7 003e ea2a b73e f154 983e df31 d43e
00000180: 5ccc 2abf 0c83 673e 806b b5bd 0686 7b3d
00000190: 1e7e dabe debb 0dbf a096 57bf c3ad 10be
000001a0: 6d54 023f 8ecd 503e db84 1bbe 66b0 cd3e
000001b0: 712f f83c b861 d0be e1aa dfbc ae2b 17be
000001c0: bd14 413e 882d 593e ace5 8abe 3d3d ef3e
000001d0: 656c d63e 5c63 41be 21ed 95be a396 8abe
000001e0: 6661 8a3e a8b9 b73e 2df8 443f 0040 92be
000001f0: 1f34 c73e a956 a0be 14f0 303e 14cf ff3e
00000200: 0236 8abe 3ebb 21bf 4149 983e a597 0e3f
00000210: 41af 203f 2ca1 b83e 67c4 073e b7b8 b53e
00000220: 4ee9 a83e 53a6 debe 4658 453f 736f 91be
00000230: fe54 8bbe d32a a03e 9cd3 583e 00d9 da3e
00000240: 6238 de3e 7cd9 073f 0913 8ebd 3758 bebe
00000250: f149 93be b0cc 313f 9378 20bf 8b70 033f
00000260: 26a9 1dbf 5808 f4bc bede a83e 7fd5 3bbf
00000270: e60b d33d 9edd 02bf d360 ad3d 54ca 673e
00000280: 654e bd3e fc59 fc3c a643 bb3e 142c 91be
00000290: ecb9 fb3e 0ec6 bebe f642 b7be fe48 a4be
000002a0: 7aa4 813e 34c8 abbe c351 23bf 0960 44be
000002b0: ed2f 2cbf 590b e23e 77df 2dbf 74eb 8d3d
000002c0: a44f 1cbf 4ec7 11bf f17f 973e 0cbc 6e3d
000002d0: ccbb d93d 902f eb3e a02d 67bf 2b78 283f
000002e0: 39a3 e4be 0028 32bf 49f3 0f3f 9c23 ecbe
000002f0: 8d1e 3c3c ee4d 823c 3c8b 84be c06e 09bf
00000300: 0e59 fd3e 4a84 20be 00a4 8d3e 53b2 afbe
00000310: ad3d 1bbf e81b 02be 3a7b ae3e 120a 2c3f
00000320: 0e0f 5c3e 71ad 89be a805 333f 6f52 3fbf
00000330: 395a 53be d4b5 54be fc06 1fbf 6d3d a43e
00000340: 1024 cb3e f192 39bd 3602 81be 6edb a03e
00000350: 27f3 8dbe cd6d 80be 232d 4ebf 87e2 fabe
00000360: e439 8abe 3da8 533e c8fa 9dbe 4d38 04bf
00000370: d642 e9be cadd 0e3f 0629 173f 914b 373f
00000380: cbe2 6a3e ac94 e83d 9de8 193e f0b4 db3e
00000390: 6a62 5ebe 0c64 09bf 1f9c dc3e c296 9f3e
000003a0: 8ed8 443e f374 0e3f e2a5 14bf 3bdb e2be
000003b0: 4299 81be 4fab c5be 760d 80bc e936 223d
000003c0: 261b a13d cc7d d1bd 5c1c 0a3c 5089 93be
000003d0: d0aa 783e f0f1 393e f813 243d a5fa cf3e
000003e0: 5a85 383f c31e 243f 9c5e bb3e d05f 1c3d
000003f0: 021c 383e 97a4 41bf 8116 903d 6b68 c73e
0.11137318 -0.33414677 -0.52169555 0.7462975 0.6473664 -0.4772683 0.6165265 0.42981896
0.47812212 0.48349294 0.58647174 0.22511798 -0.13258702 0.6200325 -0.31574342 0.13180071
0.3977989 0.7313349 0.5984435 -0.20230778 -0.403881 -0.41442606 0.13714942 -0.013681648
0.12581989 -0.41838226 0.02307367 -0.6962959 0.40480787 0.07243085 0.54341805 -0.35084906
0.35819334 -0.42185175 0.16536172 0.12856744 -0.36749718 0.84258235 0.12918851 -0.3208069
0.15763241 -0.55358166 0.33829212 -0.25176978 0.39250615 0.59881544 0.7715677 -0.023229761
-0.16991216 0.8274974 0.29111686 0.2158027 0.5393371 -0.6063592 -0.32458884 -0.04842517
-0.009811161 -0.12457897 -0.14395942 -0.09830879 0.5673091 -0.015396111 0.51855224 0.08366478
0.4504014 -0.6122392 -0.23471719 -0.09191464 0.067996606 0.43113935 0.15637091 0.455301
0.32576615 -0.15762368 0.06165535 0.48637566 -0.12716155 -0.37750491 0.42183897 -0.15155587
-0.43842053 0.4318267 0.013459958 -0.21895777 0.4707775 -0.30944756 -0.03971203 0.29745713
0.006365521 0.3675105 0.36185563 0.24951224 0.12570149 0.35774928 0.29752305 0.414443
-0.6671808 0.22608584 -0.088583946 0.06140711 -0.42674345 -0.5536479 -0.8421421 -0.14128785
0.50910074 0.20390913 -0.15187399 0.40173644 0.03029606 -0.40699553 -0.027303161 -0.14762756
0.18855567 0.21208775 -0.2712835 0.4672641 0.41879573 -0.18885559 -0.29282477 -0.27068052
0.27027434 0.35883832 0.76941186 -0.28564453 0.38906953 -0.31316116 0.17279083 0.49962676
-0.2699433 -0.63176334 0.29743388 0.5570014 0.62767416 0.36060464 0.13258515 0.3549249
0.32990497 -0.4348627 0.7708782 -0.28405342 -0.2721328 0.31282672 0.21174473 0.42743683
0.43402392 0.5306623 -0.069372244 -0.37176678 -0.2876735 0.69452953 -0.6268398 0.513436
-0.61586225 -0.029789135 0.3298244 -0.73372644 0.10305004 -0.5111941 0.084657334 0.22635776
0.36973873 0.030804627 0.3657505 -0.2835394 0.49165285 -0.3726048 -0.35793275 -0.3208694
0.25320798 -0.3355118 -0.63796633 -0.1917726 -0.6726063 0.44149283 -0.67919105 0.06929675
-0.6105902 -0.5694474 0.295898 0.058284804 0.106315225 0.45934725 -0.90303993 0.6580836
-0.4465578 -0.69592285 0.562306 -0.46120918 0.011481893 0.0159063 -0.25887477 -0.53684616
0.49482006 -0.15675464 0.27664185 -0.34315738 -0.60640985 -0.12705958 0.3407839 0.67202866
0.21490118 -0.26890138 0.69930506 -0.7473516 -0.20639886 -0.20772487 -0.6212003 0.32078114
0.3967595 -0.04530615 -0.25197 0.31417412 -0.27724573 -0.2508377 -0.80537623 -0.49000952
-0.26997292 0.20669647 -0.30855393 -0.5164841 -0.45558804 0.55807173 0.5904697 0.7159968
0.22938077 0.11356482 0.15030141 0.42911482 -0.2171723 -0.53668284 0.4308786 0.31169707
0.19223234 0.556472 -0.5806562 -0.44307885 -0.2531224 -0.3860726 -0.015631419 0.039603148
0.07866506 -0.10229072 0.008429613 -0.288157 0.2428391 0.18158698 0.040058106 0.40620914
0.7207848 0.6410944 0.3659562 0.03817731 0.17979434 -0.7564177 0.07035542 0.38946852

l1.weight f4 [256, 512]
00000000: b857 da3d a851 0d3e 1021 593d e147 793d
00000010: 3e92 a63d d36a 22be a141 073d bb4a 9d3c
00000020: f380 443e 612f 9a3e 82ec a83d 7892 a4be
00000030: a159 0b3d d6e7 8dbd 4dfb b3bd 9175 fe3d
00000040: ccfd c6bc da9c 943d 1978 323c 8082 38bd
00000050: 6764 94bd abff acbd f25a 7ebd 98ab 16be
00000060: bf0e 9b3d c0b9 3abc 7ae6 b83d cbe5 923d
00000070: 76c5 87be 6c1c 5bbe 32b3 efbc 9cb4 21bd
00000080: d6d7 ad3c f5b4 b53b 38ad c83d 2f59 133d
00000090: acba 04bd 5fd2 8d3e e15b 023c 3e8a f73b
000000a0: 86d3 12bd a96b 5bbd c8f2 ad3c f011 073d
000000b0: caf6 7b3d bf52 aebd 0765 51bd ee37 3c3e
000000c0: eb3d d4bd e097 153e a9d5 163e f328 27be
000000d0: 6b9c 9ebc 5e36 32bd c28e 44bd 9654 253d
000000e0: 090b 05be 145f 263e cbb2 743e 2db1 493e
000000f0: 7338 eb3d 9914 103d 8c2c a93e fba7 823e
00000100: 7ee1 f43d a185 233e f841 acbd 1d6c f3bc
00000110: 07b3 2d3d 3ea6 cebd 0aa7 08bd 44e1 6b3d
00000120: 95b3 0c3e 517f 1a3e c540 a6bd 4362 fb3d
00000130: b758 76bd d166 c53c 98f5 3c3c 91ed dcbd
00000140: 9262 f3bc 4d2e 943d 16e3 6cbd e657 423d
00000150: 5417 08b9 b634 09be d35b 453c 9047 c1bd
00000160: fedd 7dbd fbb5 61bd 1953 a53d 4adb c33d
00000170: c9bc 6fbd c90a 633d bac1 083e be06 583e
00000180: 27b2 37bd c7c7 ef3d ce24 36be 634e 5e3d
00000190: 6427 bbbd 25bb d2bb 9ffb 07bd 564d aebd
000001a0: 95f2 3abd 7769 5c3d 6775 70be bfeb e3bd
000001b0: 4684 173d 49ce 1f3c 6216 673d d5c7 083e
000001c0: 6851 a23d d8da 3cbd 6c5a 85be 716a 783d
000001d0: 5070 7b3e 33e5 07bd a7ce 32bd 6a5e 8dbc
000001e0: 2f1e 81bd e3cd b63d 0071 bd3c 1c23 09be
000001f0: f346 113e 05ba 793d d5f0 b7bd f8d1 87bd
00000200: 397e 4fbd 0ef6 733d 2930 103c 0234 08be
00000210: d9d8 9f3c 7053 f13c a59b 5abc 9d61 99bd
00000220: 51e9 453d a202 03bd 517d ba3d 50f9 bfbd
00000230: 3efb 773e 5019 153c 9aae 2a3e 238a c4bc
00000240: be5b 42be 3e2c 983c d76c 6f3d d8f4 d73d
00000250: a89a bb3d ba72 81bd 64ab 2cbe c7a1 4c3e
00000260: 141c fbbd 2240 de3d 4a23 85be 1c1d 5ebd
00000270: 87e0 1d3d 711b 18be 6876 79bd 0718 5ebe
00000280: c5aa a23e 5937 a1bd 8ece fc3d f8d7 63be
00000290: f19b 53be 5bff 0abe f89a 33be 1883 1c3d
000002a0: 1a4f 703e ae69 e73d 4a7c 48be 3502 38bd
000002b0: ad5b 2bbd aa97 9ebd 505e e6bd 355a 3b3e
000002c0: e5db cbbc 6885 11be e8ca 303e fc63 babd
000002d0: e3b2 91bd 7dd9 e33d 4ec2 0bbe f654 743d
000002e0: b222 003e 3fb4 5ebe 30bb 743b 95c6 d4bd
000002f0: 4959 82bd 4ee6 8dbd b68c 893d 3ebb 91bd
00000300: d6e2 ad3d 2c45 e3bd 4d64 b7bc d954 d13c
00000310: 3558 bf3d ddfe 023d 5cd5 443e 1581 d23d
00000320: d7b2 343e e48f 02be fcd9 83bd b1f2 223c
00000330: e669 acbd 34b7 95bd 7b2d bcbd 841e 83be
00000340: c1ac 3cbd 6184 4a3e bac2 133c c41d a93d
00000350: a5b6 f9bd b75a 033e d391 14be 61ae 1f3c
00000360: 8110 293e 7190 8bbd 0e82 bb3d 0ed1 94bd
00000370: bdc8 09be 11f2 a43d f34e 193e d044 3e3d
00000380: bf73 a1bd 63c5 0d3e 6645 843b ca6f d43d
00000390: e945 c7bd e8ef 2bbe d0f1 a1bd ea18 c63d
000003a0: 15a4 b3bd 2eef f73c e205 68be de41 f3bd
000003b0: 31f2 8fbc 1cde 623e b77f 093e aebf 283e
000003c0: b658 d2bd c425 65bd a270 e8bd ab1b 1abe
000003d0: 087b 32be bcc3 82bd 8ce6 f83d 45ac 643e
000003e0: a6d2 843d df15 fe3c 98e7 edbd e97a 0ebe
000003f0: 9316 063e dcef e0bd d063 04be 7ffe 57be
0.10661262 0.1380068 0.053010046 0.060859565 0.08133362 -0.15861063 0.033021573 0.019200673
0.19189815 0.30114272 0.08248235 -0.32142997 0.034021024 -0.06928985 -0.08788166 0.12424768
-0.024290942 0.072564796 0.010892891 -0.04504633 -0.07245713 -0.08447202 -0.06209845 -0.14713895
0.07571172 -0.011396825 0.09028335 0.07172736 -0.26517838 -0.21397561 -0.029260252 -0.039478883
0.021221083 0.0055452534 0.09798664 0.035973724 -0.032404587 0.27699563 0.007956476 0.0075543215
-0.035846256 -0.05356947 0.021233931 0.03297609 0.061514653 -0.08511876 -0.051121738 0.1838071
-0.103633724 0.14608717 0.14729942 -0.16324215 -0.019361695 -0.04350888 -0.047987707 0.04036387
-0.12992491 0.16247207 0.23896329 0.19696493 0.11485376 0.035175893 0.330418 0.25518784
0.11957072 0.15968944 -0.0841102 -0.029714638 0.042407062 -0.10090302 -0.033362426 0.057587877
0.1374038 0.1508763 -0.081178226 0.12274601 -0.0601432 0.024096878 0.0115331635 -0.107875
-0.029710088 0.07235394 -0.057833754 0.047447108 -0.00012978661 -0.13399014 0.012045818 -0.094374776
-0.061979286 -0.05510519 0.0807249 0.095633104 -0.05852965 0.055430207 0.13355151 0.21096322
-0.044847634 0.117080264 -0.17787477 0.054273974 -0.091383725 -0.006431001 -0.03319895 -0.085108444
-0.0456415 0.053811517 -0.23482285 -0.111289494 0.03699138 0.009753772 0.05641783 0.1335748
0.07925683 -0.046107143 -0.2604555 0.060648385 0.24554563 -0.033177566 -0.04365411 -0.017256934
-0.06304585 0.089259885 0.023125172 -0.133923 0.14187221 0.060968418 -0.08981482 -0.06631845
-0.050657485 0.059560828 0.008800545 -0.1330109 0.01951258 0.029458731 -0.013342773 -0.074893214
0.04831821 -0.031984933 0.091059335 -0.093737245 0.24216935 0.009100273 0.16668168 -0.02399165
-0.1898031 0.018575784 0.058453407 0.10544747 0.09160358 -0.063207105 -0.16862255 0.19983588
-0.12261215 0.10852076 -0.26003486 -0.05422698 0.038544204 -0.14854218 -0.060903937 -0.21688853
0.31770912 -0.07871885 0.12344085 -0.22250354 -0.20664956 -0.13573973 -0.17539585 0.03821096
0.23467675 0.11299454 -0.19578663 -0.04492398 -0.041835476 -0.077437714 -0.112484574 0.1829613
-0.024885127 -0.14211047 0.17264903 -0.09101102 -0.07114198 0.11125467 -0.1364834 0.059651338
0.12513235 -0.21748446 0.0037343018 -0.10389439 -0.06364686 -0.06928693 0.067162916 -0.07115792
0.08490531 -0.11097178 -0.022386694 0.025553154 0.09342996 0.031981338 0.19222015 0.10278527
0.17646347 -0.12750202 -0.064380616 0.009945557 -0.08418636 -0.07310334 -0.09188362 -0.2560922
-0.04606319 0.19777061 0.009018594 0.082576305 -0.1219304 0.12827574 -0.14508753 0.009746165
0.16510202 -0.068146594 0.09155665 -0.072664365 -0.13455482 0.08053983 0.14971523 0.046452343
-0.07883405 0.13844828 0.0040365933 0.103728846 -0.09730131 -0.16790736 -0.0790745 0.09672721
-0.087715305 0.030265417 -0.22658494 -0.118777975 -0.01757154 0.2215504 0.13427626 0.1647937
-0.102708265 -0.05594422 -0.11349608 -0.15049617 -0.17429745 -0.063849896 0.12153348 0.2233134
0.064854905 0.031016288 -0.116164386 -0.13914074 0.13094549 -0.109832495 -0.129287 -0.21093176

l1.bias f4 [256]
00000000: 515e eabc 4380 4ebd 8c6c dcbd a00b 52bd
00000010: 95f3 39bd 6938 44bd dc7c 48bd 2a12 b9bd
00000020: 8cfe 81bd 2401 3fbc 7709 86bd 3109 4bbd
00000030: b27e 0fbe 590b dfbd 12b6 50be 15d6 363c
00000040: 487a ccbc 99b4 30bd 8740 5fbd d568 6dbd
00000050: a337 57bd 8d8e 87bd 778b bf3d dfaa b9bd
00000060: beb4 59ba d356 e2bd 9ac8 ddbd 31ee 68bd
00000070: 2f78 5dbe acae 94bd 2fdc cbbd 22f9 85bd
00000080: e4cf 84bc 5f46 40bd d7ea 04be 36c4 3abd
00000090: 2738 39bd 55b2 05be e455 50bd d0d0 56bd
000000a0: 6b49 d6bd 419b abbd 6928 23be c522 ddbd
000000b0: d6cd 70bd 2cb0 febc 45d9 adbd e35d c2bd
000000c0: 09c0 cebd 5484 7dbc 0f67 8bbd 6acf e3bd
000000d0: f53e efbd e36c 333d c726 45bd 8f87 b4bd
000000e0: c10a b9bd 262b 6cbd 901f 883c 75c8 b0bd
000000f0: 78cb bebd 3c62 fbbd 9a16 94bd d641 50bd
00000100: 2d86 a4bd dcc8 8b3d dc11 18be bd01 36bd
00000110: 78fa 073d 9ecd d23c 874c 0bbe 7a38 b7bd
00000120: d29b 00be bca3 4fbd 9255 4abd fc49 30be
00000130: a605 68bd 0f15 423d c910 8bbd 5511 cf3c
00000140: cc49 d1bd ab82 23bd ad53 81bc 94f3 443d
00000150: d4c1 36bd dd66 b3bd dbd1 ddbd 9ed0 54bd
00000160: bdf5 89bd 71ad 6dbd 4c1e 013c 09ee a0bd
00000170: 4040 3dba c241 0cba b9fa 853c ffba debd
00000180: 6eac 97bd b6a4 afbc b34e 6ebd fd1f 3fbd
00000190: 1028 a9bc a614 23bd dc5e 1fbe 8c75 ffbd
000001a0: af13 1bbd 3532 d8bd 1aa7 913c 511d 8fbc
000001b0: 8918 acbc 4683 31be e71b c63c 5fc5 0abc
000001c0: 0ac8 8dbd ec59 d23c 77c8 69bd 7c54 c1bc
000001d0: 8e6f 3bbe 0c6f 85bd e6ad 903c 823c c6bd
000001e0: ab9d a7bd 8512 2bbe d4a6 78bb c197 10be
000001f0: ffc9 c2bd 0be4 0ebd 35a1 6ebd 9629 11be
00000200: 75b2 91bc e906 09be 4e6f 2e3c 68df 103d
00000210: ddfa de3b d044 dbbd 84ce 3dbd f5ad cbbd
00000220: a59b 76bd b41b a83c 4d47 babd 0123 6dbb
00000230: 06c1 0abd f630 76bd 8b5d b1bd c4d4 08be
00000240: c6e7 ffbd fd40 95bd 0921 c4bd bd73 67bd
00000250: 919c d2bd c0eb 12be 7f86 a4bd 52eb 06bc
00000260: f26a 42bd 74ef 77bd 452f 8abc cc4b 69bd
00000270: 5994 13be 3f23 1fbd 4ad1 e6bc 22ec 8bbd
00000280: b0b4 05be e68f 773c df8f 2b3c b2fb 99bd
00000290: 8ddb 20bd b2db 4fbd a01a 3dbd e433 febc
000002a0: 538a 75bd 4400 80bd 0c79 07be e8a7 19bd
000002b0: 00e5 b73c d44a 12be c2c6 b7bc 919f 6fbd
000002c0: aa5b b3bd 7878 bebd 57f6 d3bd 355a 2bbd
000002d0: e63c 90bd fb17 d3bd 68c6 58bd 27a0 10be
000002e0: d8bb fdbd 1510 c6bc 5f31 a5bd 1652 54bc
000002f0: 3b22 73bc 5b28 b0bd 1fab e73c aa00 d0bd
00000300: e312 c1bd 0c65 a7bd ef13 ddbc 4e7d 9cbd
00000310: 07b2 e1bd 27be 6ebd f6a3 7cbd 2c12 683c
00000320: 06f5 14be dbd8 8c3c 7fbf e9bc e2b4 403d
00000330: f229 a7bd e11a 00bd 9c27 cebd d4a4 a33d
00000340: c9e8 6cbd 46e4 94bc 8678 933d 7d12 d3bd
00000350: fa2c 4e3d c518 f4bb 8d6c 1abc 5d84 aebd
00000360: 6a74 a4bd bc5f 91bd 0bc7 60be 98ef 29bd
00000370: c6b2 3f3b 6f9b 4cbd 1c6a 9fbd 6fa6 3bbd
00000380: 4e63 6abd 184f 4bbd 39ba d0bd d577 cabc
00000390: 3562 26be b728 563c 1451 abbc 12db 4fbc
000003a0: e9b6 1bbd a8d1 233d 35b0 bfbd 896e 5bbd
000003b0: 6ce8 85bd 0a3a 16be 0633 bd3c 3db8 18be
000003c0: 1c97 e7bd fabc 77bd a102 7ebc 4982 85bd
000003d0: 2505 25bc 72ec 1ebd 3943 bfbd c1a0 02be
000003e0: 603d e9bd 48f7 0fbe eed8 31bd 7e97 1fbd
000003f0: 68af e5bc b20c e33c f686 efbb fb43 dbbc
-0.028609427 -0.05041529 -0.10762891 -0.051280618 -0.045398314 -0.04790536 -0.0489472 -0.09036668
-0.06347379 -0.011657987 -0.06544774 -0.049569312 -0.14013174 -0.10890836 -0.20381954 0.01115944
-0.024960652 -0.04314098 -0.054504897 -0.057961304 -0.052543294 -0.06618986 0.09352773 -0.09065794
-0.0008304826 -0.11051717 -0.10829277 -0.056867782 -0.21627878 -0.072598785 -0.09954106 -0.06541659
-0.016212411 -0.04694211 -0.1298021 -0.045597278 -0.045219567 -0.1305631 -0.05086316 -0.052445233
-0.10463222 -0.08379222 -0.15933384 -0.107976474 -0.05879005 -0.031089865 -0.084887065 -0.09490564
-0.100952215 -0.015473444 -0.06806766 -0.111235455 -0.1168193 0.043805014 -0.048132684 -0.08814918
-0.09035254 -0.057658337 0.016616613 -0.08631984 -0.09316152 -0.12274596 -0.072308734 -0.050844036
-0.080334045 0.0682542 -0.14850563 -0.04443525 0.03319785 0.025732812 -0.13603412 -0.08946319
-0.1255944 -0.05069326 -0.049398012 -0.17215723 -0.05664601 0.047383364 -0.06790311 0.02527682
-0.10219154 -0.039919537 -0.01578697 0.048083857 -0.044618443 -0.08759854 -0.108310424 -0.051956765
-0.06736324 -0.058026735 0.0078807585 -0.078579016 -0.0007219352 -0.0005350375 0.016354905 -0.108755104
-0.07405935 -0.021440845 -0.058180522 -0.046661366 -0.020648986 -0.039814614 -0.1556353 -0.12473592
-0.03786057 -0.10556451 0.017779876 -0.017470034 -0.021007793 -0.17335233 0.024183227 -0.0084699085
-0.0692292 0.025677644 -0.057075944 -0.023599856 -0.18304273 -0.06515321 0.017661046 -0.0967951
-0.0818437 -0.16706283 -0.0037941234 -0.1412039 -0.09511184 -0.034885447 -0.058259208 -0.1417602
-0.01778529 -0.13381542 0.010646654 0.035369307 0.0068048076 -0.10706484 -0.046339527 -0.09945289
-0.060207028 0.020521022 -0.09095631 -0.0036184194 -0.033875488 -0.060105287 -0.0866042 -0.13362414
-0.12495379 -0.07287786 -0.095766135 -0.05650686 -0.10283769 -0.14347744 -0.080334656 -0.008234816
-0.047465272 -0.060531095 -0.016868243 -0.05695705 -0.14412059 -0.038851973 -0.028175969 -0.06832148
-0.13057208 0.015109992 0.010471313 -0.0751871 -0.03927188 -0.050746627 -0.04616797 -0.031030603
-0.05994637 -0.06250051 -0.1322977 -0.037513644 0.022448063 -0.14286357 -0.022433642 -0.058501784
-0.08757718 -0.09300321 -0.1034972 -0.041834075 -0.070428655 -0.10307308 -0.05292359 -0.14123593
-0.12389344 -0.02417759 -0.080660574 -0.012959024 -0.014839704 -0.08601447 0.02827984 -0.10156377
-0.094274305 -0.0817357 -0.026987044 -0.076410875 -0.11020284 -0.058286812 -0.061679803 0.014164489
-0.14546594 0.017193248 -0.028533695 0.047047503 -0.08162297 -0.031275634 -0.10066149 0.07990423
-0.05783919 -0.018175256 0.072007224 -0.10306261 0.05033586 -0.007449242 -0.009425295 -0.0852134
-0.08030017 -0.07098338 -0.21950929 -0.04148826 0.0029250844 -0.04995292 -0.07783911 -0.04581302
-0.05722361 -0.049635977 -0.10191769 -0.024715343 -0.162484 0.013071231 -0.020912685 -0.012686508
-0.038016234 0.039994866 -0.09359781 -0.05357221 -0.065384716 -0.14670578 0.023095619 -0.14914031
-0.11308119 -0.060482956 -0.0155035565 -0.065189905 -0.010072027 -0.03879971 -0.093389936 -0.12756635
-0.113886595 -0.14059174 -0.04341977 -0.038962834 -0.028037742 0.027716015 -0.00730979 -0.026765814

l2.weight f4 [256, 256]
00000000: b51a 92bd 7c5c 053d 1acc 2a3e 8823 29bd
00000010: b176 7fbd 4128 793d b464 11bd b740 23be
00000020: d427 36be 0638 ab3c f73d debe 1c62 b43c
00000030: 20a6 8c3c c572 cdbd 183b ce3d 2f48 c0bd
00000040: e65d adbe 7a3d c4bd bfc7 babd 828c c7bd
00000050: dcd7 c23a 6c2f 21be e176 d6bc 3735 123d
00000060: 5efd 6abe 6d53 533d eb5d 12be b821 4b3e
00000070: 9061 923d 81d4 aabd 22c5 86be 7f8c bcbd
00000080: 8739 43be 6f25 33be 8288 c8ba c4bc eabb
00000090: 1763 0ebd 5538 45bd a513 8cbe d955 d2bd
000000a0: d171 a63d ef5a d63d 55ad b73d d5db bcbd
000000b0: c2f0 ebbd 849a 81be 7a4f debd 017f d1bc
000000c0: 7f48 6e3d 8f77 dcbe 11ae b9bd 21de d3bd
000000d0: a9b0 4d3c 0bf5 2dba 8cb5 e8bd e383 16bc
000000e0: 00f3 2c3c bb82 293e 8dba eabd 5df3 653e
000000f0: 8516 c0bc 8933 01be b82d 99be 3412 933d
00000100: 3fbc e8be 3038 c5bc beb6 5dbd 66e2 e1bd
00000110: e2f0 6f3e 06dc 793e 5b13 833e 9483 e7bd
00000120: 6b60 f23e 4a11 a7bd 796e f1be 65bd c53d
00000130: 68cc 41be fe32 92be 4e42 443d a773 80be
00000140: 0fea 1c3c 6559 6bbe ada2 77bc dc72 e8be
00000150: 875b 453d a134 113d aa20 ea3c 52af 60be
00000160: ea39 113e 624f 553e 0d51 113e 5342 093d
00000170: d3a2 0e3f a09a 7e3e 4435 22be 5143 4e3c
00000180: d5e0 e7be 743a 02be 7a11 52be 520c 3abe
00000190: 639b 2abd 97cc 0f3e a0f1 313e a574 1fbd
000001a0: 2450 7fbe a63d 713e 69cb 56be 9d24 87bd
000001b0: e429 b2bd f962 20be e103 73be 7106 64be
000001c0: 3a0e c43e d92d 7ebe 6a08 72be 5ae7 5f3d
000001d0: de41 aabd 6dbd 94be ecdc 6bbc f046 c33e
000001e0: 1e6a 6c3e 2bdc bfbd 1e22 113e 982c 873e
000001f0: 2aaa 923d d8d4 69be 8e01 f53d 1c39 adbd
00000200: f4fd d3be ae3a 11bd 23a7 68be 0af0 5dbe
00000210: 49ce ad3d 771f 963d 9032 0ebd a7c4 c6be
00000220: 0dc2 f53d dfc3 013e 12fe 863d 1f3b 87bd
00000230: 5c86 72be 6a20 38be ece9 773d c66d 2fbd
00000240: aedb 8cbd d137 3bbf 29f6 f93d 990c 94bd
00000250: 454a 09be c83b 543e 10cd b0bd 1666 cf3d
00000260: 4301 3e3e 7217 1bbd 856c 30bd 0bcc 4abd
00000270: 4718 aa3d 1acd 6dbd 368f 513e 3ffe 2e3e
00000280: 36c6 a2be c008 21be 8278 46be 50f1 3e3d
00000290: e166 9b3d 465e 1fbe f5db 87bd a604 12be
000002a0: 0e56 353e d02a babd 21a6 b83e 7fd4 dabe
000002b0: 3eb5 f9be e7d1 62bd b7de 863d a5d3 913c
000002c0: 5ae4 bdbd 4d27 d7be e933 ccbd 5b9b 38be
000002d0: facb a2be 91eb 763e 15e4 9ebc 2ad9 1d3d
000002e0: dfad 7fbe 080d debd b6f7 303d 94e7 3dbe
000002f0: 6d25 36be f09d 9abd 4590 373e e916 5e3e
00000300: db1e 093e d93a 8bbe 73cc fcbe a151 c5be
00000310: 6018 2fbd 24ff 07be da42 5cbb eba4 873e
00000320: 5a99 983d 1175 9ebe 325c 7cbe 3f42 2bbe
00000330: 88a2 1dbe 2a58 b1bd 7cb8 d4bd 1e41 acbd
00000340: b5c8 48be 4903 de3d b653 cabd 9ef9 8ebb
00000350: 0405 853e f6be 643d f590 fa3e bbdf c13d
00000360: d86c 16bd c294 97be 3018 c9bc fe58 11bd
00000370: 644c 543d a536 ab3d 31ce f63c d1db 11be
00000380: e95a 71be 6e75 b0bc 72fc ff3d fbd7 cdbe
00000390: e6d1 6c3b 0a16 d3be 0061 ea3d 44ec 923d
000003a0: b81e c4bd 2ace 43bc c3f4 47bd dcec 9abe
000003b0: 165c 5a3d 84eb 5abe 1b01 18be a8b3 ccbc
000003c0: 1b69 ac3e 5c27 b13b c831 a8bd fc40 593d
000003d0: 6ea7 5fbe d9ac 84bc 9076 363d 88a6 76be
000003e0: c428 55be 487c a2bd 01c5 263c 5cd7 fcbd
000003f0: 9e33 84be 05cc dfbe 7d34 96be 2120 da3d
-0.07134 0.032558903 0.16679421 -0.04129365 -0.062369052 0.060829405 -0.03549643 -0.15942656
-0.1778863 0.020900737 -0.4340665 0.022019438 0.017169058 -0.10031656 0.10069865 -0.09388768
-0.338607 -0.09582038 -0.0912013 -0.097435966 0.0014865356 -0.15740746 -0.026179733 0.03569528
-0.22948214 0.051593233 -0.1429364 0.19837081 0.07147515 -0.08341313 -0.26322275 -0.09206485
-0.19064914 -0.17494749 -0.0015299472 -0.007163616 -0.03476247 -0.048149426 -0.27358738 -0.102702804
0.081271775 0.10466563 0.08968607 -0.09221617 -0.1152053 -0.253132 -0.10855003 -0.025573255
0.058174606 -0.43059966 -0.09066404 -0.10345102 0.012554326 -0.00066359405 -0.11362752 -0.009186718
0.010555983 0.16553776 -0.11461363 0.22456117 -0.023448238 -0.12617315 -0.29917693 0.07181206
-0.4545612 -0.024074644 -0.054129355 -0.1102951 0.23431733 0.24400339 0.25600705 -0.113043934
0.47339186 -0.081575945 -0.47154596 0.09655265 -0.18925631 -0.2855453 0.047914796 -0.25088236
0.009577288 -0.2298332 -0.0151144685 -0.4540013 0.04818299 0.03545058 0.028580029 -0.2194188
0.14182249 0.20831063 0.14191075 0.033510517 0.557172 0.24863672 -0.15840632 0.012589292
-0.4528872 -0.1271761 -0.2051448 -0.18168762 -0.041652095 0.14042889 0.17377329 -0.0389296
-0.24932915 0.23558673 -0.20976032 -0.0659878 -0.08699396 -0.15662755 -0.23731948 -0.22268082
0.38292104 -0.24822177 -0.23636022 0.054663993 -0.083133444 -0.2905077 -0.014395934 0.3814006
0.23087355 -0.093681656 0.14173171 0.2640121 0.071613625 -0.228351 0.11963187 -0.084581584
-0.41404688 -0.035456352 -0.22720008 -0.21673599 0.084866114 0.0733022 -0.03471619 -0.3882191
0.11999903 0.12672375 0.06591429 -0.06603073 -0.23684067 -0.17981115 0.06052582 -0.042829297
-0.06877838 -0.73132044 0.122051544 -0.07228965 -0.13407238 0.2072593 -0.086328626 0.10126893
0.18555169 -0.037864156 -0.043072242 -0.049510997 0.08305412 -0.05805693 0.20464787 0.17089175
-0.31791848 -0.15725994 -0.19381908 0.046616852 0.07587982 -0.15563306 -0.0663375 -0.14259586
0.17708609 -0.09090197 0.36064246 -0.42740247 -0.4877109 -0.05537596 0.06585448 0.017801115
-0.0927207 -0.42022172 -0.099708386 -0.18028013 -0.31796247 0.24113299 -0.019395867 0.038537182
-0.2496867 -0.10842329 0.043204986 -0.18545371 -0.17787714 -0.075496554 0.17926128 0.21688427
0.13390677 -0.27193335 -0.49374732 -0.3853884 -0.042747855 -0.13280922 -0.0033609183 0.2649301
0.074511245 -0.3094869 -0.24644545 -0.1672449 -0.15394032 -0.08659394 -0.1038675 -0.084108576
-0.19607814 0.1084047 -0.09879248 -0.004363253 0.2598039 0.055846177 0.48938718 0.09466501
-0.036724895 -0.2960568 -0.024547666 -0.03548526 0.051830664 0.08360032 0.030127617 -0.1424401
-0.23569836 -0.02154037 0.12499322 -0.40203843 0.0036135851 -0.41227752 0.114442825 0.0717397
-0.09576172 -0.011951009 -0.048817407 -0.30258834 0.053310476 -0.21378905 -0.14844172 -0.02498801
0.3367394 0.0054063033 -0.0821262 0.05304049 -0.21841213 -0.016195701 0.044546664 -0.24086964
-0.20816332 -0.07933861 0.010178805 -0.12345764 -0.2582063 -0.43710342 -0.2933692 0.10650659

l2.bias f4 [256]
00000000: 691a 0fbe 4321 11be 0848 babd bed4 46be
00000010: cbac 05be 243e d83b 3dfb 84bd d9e3 0bbc
00000020: e1ca 39be 174f 9b3d e09a 263e f86d bcbd
00000030: 9cf2 a1bd 2141 163d ce35 57be dac3 04bd
00000040: 2a61 dabd 6e41 9bbd 427c bebc 8b35 07bd
00000050: 1267 60bd e27d 80bd 1cd6 1e3d 298e 18bb
00000060: c37a 08be 32c3 32be 96fa 14be e2fb 0bbe
00000070: 5eb6 933b 2b1d 11bb 5dd8 edbc 9120 d9bd
00000080: 1b97 54bd 640c 40bd 2484 83bd 26cb 49be
00000090: e084 3b3d 3fd7 393d e8c7 15be 3307 e4bc
000000a0: c673 3bbe 57e5 043d 79f4 99bd a8ff d3bd
000000b0: 29f4 c5bd 2bb2 52be bbe4 16be 01c1 f7bc
000000c0: 7bd9 85bd 42a7 86bd 3d05 00be 83d8 ddbd
000000d0: f0cb edbd 77bb 81bb 0836 62bd eb7c c63c
000000e0: 4163 373b 4061 33bd ce5e 7d3c c6a3 2abe
000000f0: f76c 18be 35b7 acbd 9de6 223d aff9 c4bd
00000100: 3e17 bcbc b1a0 7b3c 051c 07be 5295 3abe
00000110: e736 bfbd 8c76 6b3b 31e0 6abd bc25 8b3c
00000120: 4908 a9bd 0320 43bd 50e8 25bd cb78 f3bc
00000130: 66a7 18bd f33f 45bd 784f b4bd 8eef 98bd
00000140: 0846 babd c39b 2dbe 928b e9bd def5 ecbd
00000150: 8777 383e 3c54 d4bd 77ca f3bc 4341 4fbe
00000160: d8af d6bd 36b2 9bbd b3a4 103d 3b0c 563d
00000170: 9bdd 2cbe a969 2ebe 2915 19be 2a75 ebbd
00000180: 4b4b 54be 74f3 cbbd 782f c3bd 031e eebc
00000190: 23db 6b3d 0efa edbd 22f6 efbd 1e55 43bd
000001a0: 9462 df3d c37a adbd 0f43 423d 6203 15be
000001b0: 50fe dfbb d553 5cbd 9ce0 1dbd 44ea 63bd
000001c0: 7d18 8ebd e69c c83d 7a5c 9e3c 6039 83be
000001d0: 16ed d9bd 2330 433d 7148 01be 0a1a 07bd
000001e0: 7959 903d 16dc fdbd 34c9 13be 76b6 34be
000001f0: 7610 85be adc2 7cbe a0b0 163c 9c72 36be
00000200: bddf e13d 4236 e03d 439d 9abd 6d08 85bd
00000210: 19eb 2f3b e6fb 2abc 11eb d93c 1c32 bf3d
00000220: cf7e 2abc 46cc 9fbd bd93 f13d 1890 a6bd
00000230: 2006 38be 9feb 51bc c04a 07bd 164d afbd
00000240: e1c3 c53d cd1e 29bd 2393 1cbe c9b1 afbd
00000250: 5c27 403b 1b50 52be bb10 81bd c6c4 53bd
00000260: 96d8 aebc 3198 29bc 0a2b 90bd 54fd e2bc
00000270: 5a27 d0bd 2672 96bd 5833 ecbc 994a 3ebd
00000280: d6ba debd 70d8 123a 050d 03be 0244 6ebd
00000290: 057d 51bd 7f8a 82be 2f28 1dbe 4e27 14be
000002a0: 20c0 babd 8490 6abd fd19 46be a19c 3d3e
000002b0: 2bca 55bc 2f9a bbbc 13d2 4abd 93b4 c6bc
000002c0: 2c13 2ebd c661 59bd 2322 5dbe 8a3a cf3b
000002d0: cbf7 aabb 40d4 6bbd 0949 14be c745 b33c
000002e0: c830 de3d fdd7 43be 8838 de3c 1661 8ebb
000002f0: 8750 70bd 6cc2 fdbd 64c6 943c f952 00be
00000300: 2e78 8b3c d8e1 aa3d 5446 3ebd a227 03bd
00000310: f4d7 403d 7b25 04be 4794 fabd 812b 12bd
00000320: f3aa 15be b5c4 c3bd 93e6 dcbc af91 f1bd
00000330: 7842 0dbd 2a4a 90bc 1a3d 9ebe 67f0 3abe
00000340: ff2e d6bd 4541 743c 1bff 273d 0616 f8bd
00000350: 782a 4bbe 600f bc3c 1ba2 2dbd ae76 b0bd
00000360: 4f28 93bd 9073 8a3d 1714 8abd 2297 d9bc
00000370: 9636 12be 6ceb 5fbc 7b9e 12bd 75da 1bbe
00000380: 2b24 07be 8a3b 92bd 94b4 aebc 2c1b 22be
00000390: 71d0 e6bd 50fd bdbd 3c01 523d 36a6 eebc
000003a0: 8079 1ebd b2ba 81bc 90a3 483c 03c8 d1bd
000003b0: 32a6 60bd 1a9b 82be 4826 e3bd 5e61 0abe
000003c0: 9473 8abc 923a 54be cbc5 783d 65e3 0bbe
000003d0: 100e 0c3e 663f 45bd 438a f13c 1167 6ebe
000003e0: 2dbd 983c c3ba 09be ef4a 39ba f68b e1bd
000003f0: be3d 01bd 780c 04be 2eb0 67bd 9e86 7dbd
-0.13974918 -0.14172845 -0.0909577 -0.19417092 -0.13054197 0.0065992046 -0.064932324 -0.00853821
-0.18143798 0.075834446 0.16270018 -0.092006624 -0.07907602 0.036683206 -0.21016619 -0.03241334
-0.10663064 -0.07580839 -0.02325261 -0.033010047 -0.054785796 -0.0627401 0.03877841 -0.0023278093
-0.1332808 -0.17457274 -0.14548716 -0.13670304 0.004507824 -0.002214263 -0.029033834 -0.10601915
-0.051901918 -0.046886817 -0.06421688 -0.19706401 0.045781016 0.04537129 -0.1462704 -0.027835464
-0.18305883 0.032445278 -0.075173326 -0.10351497 -0.096657105 -0.20575778 -0.14735691 -0.030243399
-0.06535622 -0.06574871 -0.12501998 -0.10832312 -0.116111636 -0.003959115 -0.05522731 0.024229487
0.0027982744 -0.043793917 0.015464498 -0.16664037 -0.14885317 -0.084333815 0.03977071 -0.09617936
-0.022960301 0.015358136 -0.13194282 -0.18221024 -0.09336644 0.0035928814 -0.05734271 0.016985767
-0.082535334 -0.04763795 -0.040504754 -0.029720685 -0.03726902 -0.04815669 -0.0880422 -0.074675664
-0.09095389 -0.1695395 -0.11403574 -0.11570333 0.18014346 -0.10367629 -0.029759629 -0.20239739
-0.10482758 -0.076023504 0.03531332 0.052257758 -0.16881411 -0.17032494 -0.14949478 -0.11496957
-0.20731847 -0.099585444 -0.09530538 -0.029067045 0.057582032 -0.1161996 -0.11716868 -0.047688596
0.10907474 -0.084706806 0.047427233 -0.14552072 -0.0068357363 -0.053790886 -0.038544282 -0.055643335
-0.069382645 0.09795551 0.019331206 -0.2562971 -0.10640924 0.04765333 -0.1262529 -0.032983817
0.070483156 -0.12395494 -0.14432222 -0.17647728 -0.2598912 -0.24683638 0.009197384 -0.17817158
0.11029003 0.10947849 -0.075495265 -0.06495748 0.002684301 -0.010436034 0.026601346 0.093357295
-0.01040621 -0.07802634 0.11795757 -0.081329525 -0.17971087 -0.012812524 -0.03303027 -0.08559625
0.096565016 -0.04128914 -0.15290503 -0.08578832 0.0029320335 -0.2053837 -0.06302019 -0.05170133
-0.02134351 -0.010351227 -0.07039459 -0.027708687 -0.10163756 -0.07345991 -0.028833076 -0.04645786
-0.1087548 0.00056017097 -0.12797935 -0.058170326 -0.05114462 -0.2549629 -0.1534736 -0.14468119
-0.09118676 -0.057266727 -0.19345851 0.1851678 -0.013048689 -0.022900669 -0.04951675 -0.024256026
-0.042498752 -0.05307176 -0.21595053 0.006324117 -0.0052175275 -0.057575464 -0.14480986 0.021883858
0.10849148 -0.19125362 0.027126566 -0.0043450696 -0.058670547 -0.12390599 0.018161006 -0.12531652
0.01702508 0.083438575 -0.04645379 -0.03202022 0.04708095 -0.12904923 -0.12235313 -0.03568602
-0.14615993 -0.09559003 -0.026965415 -0.11795365 -0.034487218 -0.01761349 -0.30905992 -0.18255769
-0.104581825 0.01490814 0.041014772 -0.12113576 -0.1984042 0.02295655 -0.042390924 -0.08616386
-0.07185423 0.06760323 -0.06742113 -0.026561324 -0.14278635 -0.013666969 -0.03579567 -0.15220053
-0.1319739 -0.071402624 -0.02132634 -0.15830678 -0.11270226 -0.09276831 0.05127071 -0.02913199
-0.03869009 -0.015836094 0.012246028 -0.10243227 -0.054845996 -0.25508958 -0.11091286 -0.13513705
-0.016900815 -0.20725468 0.060735505 -0.13660963 0.1367724 -0.048156165 0.029484874 -0.23281504
0.018644894 -0.1345015 -0.0007068356 -0.110130236 -0.031553023 -0.12895381 -0.056564502 -0.06189596

l3.weight f4 [2, 256]
00000000: aa21 293f ee95 c9be 7738 c7be dd8b cebb
00000010: bd45 03bf 81be 3f3f 4590 e03e d7a6 7abe
00000020: 28fd f3bd e7b3 163f 04cf 953e aacb 28bf
00000030: 7428 4dbc f890 e3bd 4528 d33e fbfc 00bf
00000040: f15b f1bd 49a4 12be 0317 d03e a9c0 d9be
00000050: 83be bbbd 38e1 09bf 58e4 bc3e 8ac9 00bf
00000060: 9c6c 14be aaac 183f 7a1b 09bf da93 eebe
00000070: faa9 bdbe 16e9 813e 0f2a d2be bcf4 0c3f
00000080: ba3a c53e 42b9 2cbf 8eda 94be 687a 11bf
00000090: 9d99 643e 3776 f83e c615 f63e 6714 b33e
000000a0: 03fd 863c e61b c6be a7b2 433f 6f5b 4f3e
000000b0: d50a 383f 5b4a 25bf 631b 40be 5525 0dbf
000000c0: 4e9e d1be 18e4 23bf d9db b7bc 7887 a33e
000000d0: 567b 17bf 1455 453e 1510 19bf c377 b5be
000000e0: 7dba f7be ad1f b53e bfc0 133f 3907 25be
000000f0: a5b1 0cbf 25a9 87be 36d3 563d dc9f f3be
00000100: 434c 703d 64df 063f c3ed 493f a357 0ebf
00000110: 2d73 97bc e40a febe bfc5 0dbf 236f ac3d
00000120: dd35 ffbe a1aa 113f 823a 923d c833 833e
00000130: 929b 9dbe 0afa a03a f48a e7be c65f 783e
00000140: 8847 9c3e d1e3 97be ea60 c33e 2764 0bbe
00000150: afd1 273f 7266 d63e 3db2 343f ddf2 80be
00000160: 7040 20bf 61f2 1c3f 7073 1abf ebab 3f3e
00000170: 995c da3e 540c 40bf 0075 d73e 2b71 d0be
00000180: 5ef3 173d a155 e4be 61a3 19bf 078e 16bf
00000190: 3f96 08be 4431 03bf d34f 0cbe 7423 a93e
000001a0: b77e 293e df92 033f e1f5 013f 7a59 f4be
000001b0: 000d 10bf 3ce7 cdbd f9b4 9e3e 90ee e5be
000001c0: ef34 03bf 07f7 543d ba6d 28bf ef39 30bf
000001d0: 5cb5 8cbe 3710 0f3f 1152 84be f31c c93e
000001e0: 3ddd 3f3e 9a1f 4d3f 4e87 2d3f 45f7 babe
000001f0: 1f6d 17bf d41f 0dbf 6fe9 2fbe a795 f53d
00000200: 6803 273f 2b60 073f 2959 a2be ca82 253f
00000210: 4c02 4f3f 98a0 35bc 67bd e53e 748e b03e
00000220: b8a9 debe 3d6c ac3e a6ca a23d bf34 173f
00000230: 72e5 f7be de62 ecbe e6ea 0a3f c831 c1bd
00000240: cfe6 ce3e ef5c 113f 0fc9 d53d 0bfa 173d
00000250: f129 e0be cb94 67be 4f22 753e c366 d43d
00000260: e06e f53e 3f1a fcbe 10b0 a33e f7d1 0bbf
00000270: cf9a ccbe cfcd e4be 05bb 493f cc0a 76be
00000280: cc27 71bf 5dce 393d 35f3 c1be fbd9 b13e
00000290: 66ef cb3c 1797 69bf 0f86 eabe 4c26 17bf
000002a0: 6008 633f fdb8 bdbe 601a 0f3d d2ec 253f
000002b0: d7c4 923e 90f1 13bf 305e c93e ab44 dc3e
000002c0: 90f7 033e df11 043f f7f1 c5be 511f c23e
000002d0: de43 223f 60f2 353f 8e22 bf3e 6bdc 543f
000002e0: f71d afbe 91ee 81be 9dfc 113f 1471 ae3e
000002f0: a821 1abf e4c2 a6be cb94 e8be 6289 d3be
00000300: e5ba 103f dab8 b73e 411e 45bd 99f1 03bf
00000310: 54cf 0d3f c09d 813e 4aa7 353f 46df 0f3f
00000320: 276c 543d 57e7 483f 62b6 47be c109 91be
00000330: 0055 be3d d438 ed3e ca28 43bf b6c4 f1be
00000340: c799 ab3e 8830 943e b558 a53e 8b1b 5d3e
00000350: c96b 34be c185 dfbd b259 b93e a96d ab3e
00000360: 45bb f93e f2c7 403f 234a bb3d df6b 22be
00000370: a149 febe 7b9f 863d af96 05be d3e6 11bf
00000380: 13b3 15bf de53 113f 2c12 1d3f 9f61 f83e
00000390: 202a 523e ac0a b0be d885 23bf 005e 343f
000003a0: f380 443e 985c 993e a053 3e3f d0ca e4be
000003b0: 2027 1bbb ae94 52bf 9bad 563f f1bd 533e
000003c0: 25e6 1dbd 9b91 a5be 8d37 083f 8643 a73d
000003d0: 1fe6 263f 2a49 efbd dd38 10bf 9398 e3be
000003e0: 7794 47bf ea01 073f bfb2 f4be 97de cf3b
000003f0: 1040 363e 6e07 a53d 2227 54be 8189 debe
0.6606699 -0.393722 -0.38910267 -0.006303294 -0.5127829 0.7490006 0.4386007 -0.24477707
-0.1191352 0.5886826 0.29259503 -0.65935767 -0.012521852 -0.11111635 0.4124166 -0.5038602
-0.117851146 -0.14320482 0.40642557 -0.425298 -0.091671966 -0.5385928 0.36892962 -0.50307524
-0.14494556 0.59638464 -0.5355755 -0.46597177 -0.37043744 0.25373143 -0.41047713 0.55060935
0.38521367 -0.6747018 -0.29072994 -0.568274 0.22324224 0.4852769 0.48063487 0.34976503
0.016478067 -0.3869316 0.76444477 0.20249723 0.7189153 -0.6456658 -0.18760447 -0.5513509
-0.4094109 -0.6401992 -0.022443699 0.31939292 -0.5917257 0.19270736 -0.59790164 -0.35442933
-0.48384467 0.3537573 0.5771598 -0.16116036 -0.54958564 -0.26496235 0.05244752 -0.475829
0.05866648 0.5268462 0.7887842 -0.55602473 -0.018487537 -0.49617684 -0.5537986 0.08419635
-0.49845782 0.56900984 0.07140066 0.25625443 -0.30782753 0.0012281549 -0.452232 0.24255285
0.30523324 -0.29665998 0.38159877 -0.13612424 0.65554327 0.41875035 0.7058447 -0.2518529
-0.62598324 0.6130734 -0.60332394 0.18717925 0.4264877 -0.7501881 0.4208145 -0.4071134
0.037097327 -0.4459658 -0.6001492 -0.58810467 -0.13338564 -0.5124705 -0.13702326 0.3303486
0.16552244 0.5139598 0.50765806 -0.47724515 -0.56269836 -0.1005387 0.30997446 -0.4490857
-0.51252645 0.051993396 -0.6579243 -0.688384 -0.27482116 0.55884117 -0.25843862 0.392799
0.1873674 0.80126345 0.67784584 -0.36516777 -0.5915088 -0.5512669 -0.17178892 0.119914345
0.6523957 0.52881116 -0.3170865 0.64652693 0.8086288 -0.011085652 0.44871065 0.34483683
-0.4348886 0.3367633 0.07948808 0.5906486 -0.4841724 -0.4616918 0.54264677 -0.09433323
0.40410468 0.5678243 0.104387395 0.037103694 -0.43782 -0.22615354 0.23938869 0.10371163
0.47936153 -0.49238774 0.31970263 -0.54617256 -0.3996186 -0.4468827 0.78800994 -0.24027556
-0.9420135 0.04536282 -0.37880865 0.34736618 0.024894428 -0.9124617 -0.45805404 -0.5904281
0.88684654 -0.37055197 0.034937263 0.64814484 0.28665802 -0.5779047 0.39329672 0.4302114
0.12887406 0.5158977 -0.38661167 0.37914518 0.6338481 0.7107296 0.3733105 0.8314883
-0.3420255 -0.25377324 0.5702608 0.34070647 -0.60207605 -0.32570565 -0.4542602 -0.41315752
0.5653518 0.35883218 -0.048124555 -0.51540524 0.5539448 0.25315666 0.7095839 0.56200063
0.051860955 0.78477997 -0.19503167 -0.28327754 0.09293556 0.4633242 -0.76234114 -0.4722039
0.3351576 0.28943276 0.3229424 0.21592538 -0.17619242 -0.109141834 0.36201245 0.33482102
0.48775688 0.7530509 0.09145 -0.15861462 -0.4966555 0.06573387 -0.13045762 -0.56992835
-0.5847637 0.56768596 0.61355853 0.4851198 0.20523882 -0.34383142 -0.63876104 0.7045593
0.19189815 0.29953456 0.7434635 -0.44685984 -0.0023674443 -0.8225812 0.8385865 0.20677926
-0.03854956 -0.3233765 0.53209764 0.08167176 0.65194887 -0.11683877 -0.56336766 -0.44452342
-0.77960914 0.52737296 -0.47792622 0.0063436734 0.17797875 0.08058058 -0.20718053 -0.43464282

l3.bias f4 [2]
00000000: 54b9 02bd b3ea a8ba
-0.031915024 -0.0012887329
