src/drl_agent/temp/pytorch_models/td7_agent_seed_40_20250619_actor_target.pth (torch, 820173 bytes, 8 tensors)

l0.weight f4 [256, 24]
0	0xbdcb964d	-0.09940777
1	0x3e040dfb	0.12895958
2	0xbe0f709d	-0.14007802
3	0x3d31a1bb	0.04336713
4	0x3e774363	0.241468
5	0x3dc45383	0.09586241
6	0x3d2a1e09	0.04153255
7	0xbe780210	-0.24219537
8	0xbe5d4853	-0.21609621
9	0xbe9df4fc	-0.3085097
10	0x3e22ea65	0.15909727
11	0x3d2b3f76	0.041808568
12	0x3e94d834	0.290712
13	0x3ea7a758	0.3274486
14	0x3e17814a	0.14795414
15	0x3d7085b6	0.058721267
16	0x3e4b4520	0.19850588
17	0xbe19c59b	-0.15016787
18	0x3d7120f3	0.058869313
19	0xbe09268e	-0.13393614
20	0xbe65b877	-0.22433649
21	0xbe917a30	-0.28413534
22	0x3d968545	0.07349638
23	0x3e5ca1f3	0.21546154
24	0x3c0a0a2d	0.008425278
25	0xbe2a8ad0	-0.16654515
26	0xbd0d8feb	-0.03456108
27	0xbeaf113b	-0.34192833
28	0xbe6ee110	-0.23328042
29	0x3ea9be8d	0.3315319
30	0x3e435b99	0.1907791
31	0x3e840d78	0.25791526
32	0xbe491c78	-0.19639766
33	0xbb6504d1	-0.0034945498
34	0xbe167b32	-0.14695433
35	0xbe72f269	-0.23725285
36	0x3e98c59f	0.29838273
37	0x3dfb30d9	0.12265176
38	0x3e51ae41	0.20476629
39	0xbbbd198d	-0.005770868
40	0x3c60a9f9	0.0137124
41	0xbdbab124	-0.09115818
42	0x3e60afda	0.21942082
43	0x3dcb266f	0.0991944
44	0xbce8508b	-0.028358718
45	0xbeec5e16	-0.46165532
46	0xbec3d070	-0.38244963
47	0x3e9984aa	0.29984027
48	0xbd289f56	-0.04116758
49	0xbd8d8e05	-0.06911854
50	0xbe1ff27c	-0.15619844
51	0x3db4f41b	0.08835622
52	0xbd8b2c49	-0.06795556
53	0xbdec3b35	-0.1153473
54	0x3e556e77	0.2084292
55	0x3d27709c	0.040878877
56	0x3dc28469	0.094979115
57	0xbd1bd279	-0.03804252
58	0xbe931498	-0.2872665
59	0xbd2bc115	-0.041932184
60	0xbe3ac6b0	-0.18239856
61	0x3e98201a	0.29711992
62	0x3ee9f2d1	0.45693067
63	0x3ed3e05d	0.41382113
64	0x3e3b32dd	0.18281122
65	0xbe4f6f52	-0.20257309
66	0x3e3023c4	0.17201144
67	0x3e0f611a	0.14001885
68	0xbb730078	-0.0037079137
69	0x3c0ade1c	0.008475807
70	0xbe99e02b	-0.3005384
71	0xbbbb9d02	-0.005725504
72	0xbd0ee809	-0.034889255
73	0x3df326bb	0.118726216
74	0x3e855b6a	0.26046306
75	0xbe5c2a74	-0.2150057
76	0xbe90d179	-0.28284815
77	0xbe2df6b2	-0.16988638
78	0xbc8b5cf3	-0.017012095
79	0x3e09f533	0.13472442
80	0xbe04ae39	-0.12957086
81	0xbe934d48	-0.28769898
82	0xbdf6000e	-0.12011729
83	0xbc09d313	-0.00841214
84	0xbe443f9c	-0.1916489
85	0x3d0175ba	0.031606413
86	0x3e002967	0.12515794
87	0xbd8584e8	-0.065194905
88	0x3e5eb063	0.21746974
89	0xbe901e31	-0.28148034
90	0xbda6b67e	-0.08140276
91	0x3d9d6043	0.07684376
92	0x3db0ad53	0.08626809
93	0xbed825e6	-0.42216414
94	0xbe18a306	-0.14905939
95	0xbdccd49f	-0.10001492
96	0x3d6626cd	0.056189347
97	0xbda3afc0	-0.07992506
98	0x3e5cfcdd	0.21580835
99	0xbd5b4dec	-0.05354111
100	0xbd85bfa2	-0.06530692
101	0x3d94a030	0.07257116
102	0x3e9e0f64	0.30871117
103	0xbe0d8952	-0.13821915
104	0xbe716061	-0.23571922
105	0xbe9c8a70	-0.3057437
106	0xbbb2e3e1	-0.005459294
107	0xbdc68bb4	-0.09694615
108	0x3e3ead1a	0.1862072
109	0x3d1b995f	0.037988063
110	0x3ea29a92	0.31758553
111	0x3e890cae	0.26767486
112	0xbe9dcbb5	-0.3081948
113	0xbea65f50	-0.32494593
114	0xbe597516	-0.21236071
115	0x3e3f6b7a	0.18693343
116	0xbd8c4196	-0.06848447
117	0x3e910c8a	0.2832988
118	0x3e3b9571	0.18318726
119	0xbdcbc90a	-0.099504545
120	0x3dfd4c8c	0.12368116
121	0x3e1a8f33	0.15093689
122	0x3c17c82f	0.009264036
123	0xbe7cab08	-0.24674618
124	0xbe922c85	-0.2854959
125	0xbe2bb289	-0.16767325
126	0x3e4df082	0.20111278
127	0xbe7a17c0	-0.24423122
128	0xbe3a28f4	-0.18179685
129	0x3d1e40a5	0.03863587
130	0x3e16ce57	0.1472715
131	0x3d6027df	0.054725524
132	0x3e2d9d18	0.16954458
133	0xbe9190e3	-0.28430852
134	0xbd691ed1	-0.056914154
135	0xbc5ea318	-0.013588689
136	0x3e1b8a5d	0.151895
137	0xbd945055	-0.072418846
138	0xbde38d66	-0.11110954
139	0x3dfb73c7	0.12277942
140	0x3e267b60	0.16258001
141	0x3eac0cf0	0.3360362
142	0xbe0d7d8a	-0.1381742
143	0xbe23a082	-0.15979198
144	0x3d30781a	0.043083288
145	0xbe46167d	-0.19344516
146	0xbe27f25a	-0.16401044
147	0x3e7c3133	0.24628143
148	0xbde1c916	-0.11024682
149	0x3d5f5219	0.054521654
150	0xbe0ea1d1	-0.13928916
151	0xbc979cfc	-0.018507473
152	0x3e2337dd	0.15939279
153	0xbeeda46d	-0.4641451
154	0xbee23ec3	-0.44188508
155	0x3c18b7c9	0.009321162
156	0xbe432d00	-0.19060135
157	0x3e9f1d49	0.3107703
158	0x3e583d0b	0.21117036
159	0xbe9ced04	-0.3064958
160	0xbe4f733d	-0.20258804
161	0x3de40115	0.11133019
162	0x3e369e7d	0.17833896
163	0xbe0ab8e8	-0.13547099
164	0x3c207e35	0.009795715
165	0xbe9a2993	-0.30109844
166	0x3e23891f	0.15970276
167	0x3dc29f89	0.09503085
168	0x3e24cffb	0.16094963
169	0xbdaeac01	-0.08528901
170	0x3d504419	0.050846193
171	0xbe0ba7bc	-0.13638204
172	0xbe4cf3a7	-0.20014821
173	0xbe140ef7	-0.14458834
174	0x3cb00168	0.021485046
175	0xbd12c39d	-0.035831083
176	0xbe43c8ee	-0.19119617
177	0x3be268b1	0.006909453
178	0x3e9ae72c	0.30254495
179	0x3e00f667	0.12593995
180	0x3c679b88	0.014136203
181	0x3e53c5a4	0.20680863
182	0xbe668e3c	-0.22515196
183	0xbe1ed3cf	-0.15510486
184	0xbe1ec1eb	-0.15503661
185	0xbd01591e	-0.03157913
186	0x3e6dad4b	0.23210637
187	0xbe42351a	-0.18965569
188	0xbe595b6b	-0.2122628
189	0x3ed98619	0.4248512
190	0x3dbf4f8c	0.09341344
191	0xbd619d37	-0.055081572
192	0xbc6df512	-0.014523761
193	0xbc48344c	-0.0122195
194	0x3e15b2e1	0.14619018
195	0x3da5f2a5	0.081029214
196	0xbea8c301	-0.32961276
197	0xbeeaed2f	-0.45884082
198	0xbe73c829	-0.23806824
199	0x3eefd4d5	0.46842065
200	0x3f2a9e30	0.66647625
201	0x3e7f3353	0.24921922
202	0xbd8caac3	-0.06868508
203	0xbe7bc340	-0.245862
204	0xbe8ea953	-0.2786356
205	0xbe01a6b1	-0.12661244
206	0x3e65455e	0.22389743
207	0x3e5afb23	0.21384864
208	0xbe6f771e	-0.23385283
209	0xbe350157	-0.17676292
210	0xbdc2575d	-0.094893195
211	0x3deec34a	0.11658342
212	0xbda8a9b6	-0.08235495
213	0x3cc3d862	0.02390689
214	0x3e14b0a5	0.1452051
215	0x3e4c12d8	0.19929063
216	0xbe5e7eda	-0.21728078
217	0x3d8e3887	0.069443755
218	0x3e786308	0.24256527
219	0x3d7e26a7	0.06204858
220	0x3de31b07	0.110891394
221	0x3eae9fb2	0.34106213
222	0x3b04fff9	0.0020294173
223	0xbe0805be	-0.1328344
224	0xbea4da77	-0.32197925
225	0xbea3aba8	-0.319669
226	0x3d2ef3ec	0.04271309
227	0x3d96fcd3	0.07372441
228	0xbd3398dc	-0.04384695
229	0xbe82ca14	-0.25544798
230	0xbe048d87	-0.12944613
231	0xbda53726	-0.08067159
232	0x3e93c180	0.28858566
233	0xbe0e17a5	-0.13876207
234	0x3d47c430	0.048771083
235	0x3dbc4127	0.09192114
236	0xbe3ba038	-0.18322837
237	0x3c63cc84	0.013903741
238	0xbe83020f	-0.25587508
239	0x3dd4f7d7	0.10398834
240	0x3daf76a8	0.08567554
241	0xbd527db0	-0.051389396
242	0xbdade8a6	-0.0849164
243	0xbd063a27	-0.032770302
244	0xbe4fa3e5	-0.20277365
245	0x3df37945	0.11888365
246	0xbe616e35	-0.22014697
247	0xbd8d0053	-0.068848275
248	0x3c266bad	0.010157508
249	0xbe7905ae	-0.24318573
250	0x3bc49720	0.005999461
251	0x3e9743d4	0.29543936
252	0x3ead9a57	0.33906814
253	0x3df491d8	0.1194188
254	0x3e911625	0.28337207
255	0x3db16755	0.08662287

l0.bias f4 [256]
0	0x3e010e34	0.12603074
1	0xbeb20ef9	-0.34777048
2	0xbf0aed5d	-0.5426844
3	0x3f4b241a	0.7935196
4	0x3f34e1d6	0.706571
5	0xbf03617c	-0.51320624
6	0x3f269056	0.6506399
7	0x3ee8c604	0.45463574
8	0x3f0510cc	0.51978755
9	0x3f07e3b5	0.5308183
10	0x3f229481	0.6350785
11	0x3e6d8f62	0.23199227
12	0xbe0d3f95	-0.13793786
13	0x3f2914a2	0.6604711
14	0xbeb1699a	-0.3465088
15	0x3e19e4f1	0.1502874
16	0x3edba06a	0.42895824
17	0x3f46dfea	0.77685416
18	0x3f2731b9	0.65310246
19	0xbe5795ab	-0.21053188
20	0xbedb24cd	-0.42801514
21	0xbee5732b	-0.4481443
22	0x3e1c4da0	0.15263987
23	0xbc1a72c4	-0.009426776
24	0x3e0f010a	0.1396524
25	0xbeed90d2	-0.46399552
26	0x3d36f6fc	0.044669136
27	0xbf419152	-0.75612366
28	0x3ed39b9c	0.41329658
29	0x3d7108c9	0.05884627
30	0x3f10ba57	0.5653433
31	0xbecf17af	-0.40447757
32	0x3eccdc42	0.40011793
33	0xbeec2e08	-0.4612887
34	0x3e1516be	0.14559457
35	0x3e00204f	0.12512325
36	0xbec5c5db	-0.38627514
37	0x3f68ba3b	0.90909165
38	0x3dfa6d52	0.122278824
39	0xbeaab21c	-0.33339012
40	0x3e342b14	0.17594558
41	0xbf15b544	-0.58479714
42	0x3eb31c5f	0.34982583
43	0xbe8ce11e	-0.275155
44	0x3ee43169	0.44568947
45	0x3f22b38e	0.6355523
46	0x3f550787	0.8321461
47	0xbca5a0f3	-0.020218348
48	0xbe391e69	-0.18078007
49	0x3f6428ad	0.89124566
50	0x3ea2d170	0.31800413
51	0x3e6965e2	0.22792771
52	0x3f16f328	0.58964777
53	0xbf2610c2	-0.6486932
54	0xbeb7f4f1	-0.35929063
55	0xbd89d8a2	-0.067307726
56	0x3b89dd5e	0.004207297
57	0xbdf894ab	-0.12137731
58	0xbe22b2cf	-0.15888523
59	0xbdb3e0ca	-0.087831095
60	0x3f1b2ffb	0.6062009
61	0xbc29eafc	-0.010370966
62	0x3f0afadc	0.5428903
63	0x3df1325e	0.11777185
64	0x3ef3362f	0.47502276
65	0xbf28ccc3	-0.6593744
66	0xbe817dcb	-0.25291285
67	0xbdcd1d0b	-0.10015305
68	0x3d642c6e	0.055706434
69	0x3eeaaa00	0.45832825
70	0x3e45b674	0.19307882
71	0x3ef1100f	0.47082564
72	0x3eacf05a	0.33777124
73	0xbe15e902	-0.14639667
74	0x3d3eff6d	0.04663031
75	0x3f0af21a	0.5427567
76	0xbe1f60da	-0.1556429
77	0xbeca17e1	-0.39471343
78	0x3ee50296	0.44728535
79	0xbe380849	-0.1797191
80	0xbef8a510	-0.48563433
81	0x3ef221cc	0.4729141
82	0x3cef89a3	0.029240435
83	0xbe62e090	-0.22155976
84	0x3f01883d	0.5059851
85	0xbeb11eae	-0.3459372
86	0xbd3c5d47	-0.045987394
87	0x3ea0e521	0.3142481
88	0x3bb19bf2	0.0054202015
89	0x3ec9e563	0.3943282
90	0x3ecf9c71	0.40549043
91	0x3e9c0c87	0.30478308
92	0x3df8f85b	0.12156745
93	0x3ebd0631	0.36918786
94	0x3e9d66a3	0.30742368
95	0x3eee26a4	0.46513855
96	0xbf371ced	-0.7152851
97	0x3e6fc756	0.23415884
98	0xbdefc7d9	-0.1170804
99	0x3d8bfc64	0.06835249
100	0xbeeaf0ec	-0.45886934
101	0xbf18320c	-0.59451365
102	0xbf68e839	-0.90979344
103	0xbe19298e	-0.14957258
104	0x3f0a24f8	0.5396266
105	0x3e641f67	0.22277604
106	0xbe36f4da	-0.17866841
107	0x3ed7bd34	0.42136538
108	0x3d228812	0.039680548
109	0xbed59974	-0.41718638
110	0xbd2549f2	-0.040353723
111	0xbe1394f1	-0.14412285
112	0x3e4d2e7f	0.20037268
113	0x3e633f93	0.2219222
114	0xbe921141	-0.2852879
115	0x3f00b868	0.5028138
116	0x3ee31133	0.4434906
117	0xbe45aed9	-0.1930498
118	0xbe9f4985	-0.31110778
119	0xbe90df59	-0.282954
120	0x3ea0d7e7	0.3141472
121	0x3ec364f9	0.38162974
122	0x3f548b87	0.830254
123	0xbea482ff	-0.32131192
124	0x3ecf5a06	0.4049837
125	0xbeab0398	-0.3340118
126	0x3e47ca31	0.19510724
127	0x3f073707	0.5281834
128	0xbe95238e	-0.2912869
129	0xbf30b864	-0.6903136
130	0x3ea24741	0.31694987
131	0x3f17e6d5	0.59336597
132	0x3f260d8a	0.6486441
133	0x3ecf9495	0.40543047
134	0x3e1dce0d	0.15410633
135	0x3ebdb24e	0.37050098
136	0x3eb956f5	0.36199155
137	0xbef6bf83	-0.48192987
138	0x3f534acf	0.82536024
139	0xbe9eb9e8	-0.3100121
140	0xbe94e0ea	-0.29077846
141	0x3eb0c38d	0.34524193
142	0x3e704e2d	0.23467322
143	0x3eec55b2	0.4615913
144	0x3ef1f425	0.4725658
145	0x3f142f72	0.57884896
146	0xbd91855a	-0.07105513
147	0xbec9474a	-0.39312202
148	0xbea30f59	-0.31847647
149	0x3f40ec73	0.7536079
150	0xbf317946	-0.69325674
151	0x3f0cffae	0.55077636
152	0xbf29d535	-0.66340953
153	0xbca68dc5	-0.020331273
154	0x3eb784e3	0.35843572
155	0xbf49bb46	-0.7880138
156	0x3de57f12	0.11205877
157	0xbf0c78a9	-0.5487161
158	0x3dc5dc05	0.09661106
159	0x3e7074ad	0.23482008
160	0x3ed5c621	0.41752723
161	0x3d2aea94	0.041727617
162	0x3ece5ad4	0.4030367
163	0xbe9fbcb1	-0.31198648
164	0x3f023b10	0.5087137
165	0xbed83e0f	-0.42234847
166	0xbebb5749	-0.3659003
167	0xbeab4709	-0.33452633
168	0x3e90874a	0.28228217
169	0xbeb30d48	-0.3497107
170	0xbf300285	-0.68753844
171	0xbe5520de	-0.20813319
172	0xbf3b7375	-0.7322305
173	0x3ef08814	0.4697882
174	0xbf3b41b6	-0.7314714
175	0x3da55491	0.080727704
176	0xbf25854d	-0.64656526
177	0xbf20fc1d	-0.62884694
178	0x3eae85a9	0.3408635
179	0x3cf9c8f3	0.030491328
180	0x3dddea77	0.10835736
181	0x3ef5ad33	0.47983703
182	0xbf76c5f4	-0.963958
183	0x3f346163	0.704611
184	0xbf00d9bf	-0.50332254
185	0xbf41f225	-0.7576011
186	0x3f1ab62e	0.60434234
187	0xbefe46ce	-0.49663395
188	0x3c30ecba	0.0107986275
189	0x3cd9ad47	0.026571883
190	0xbe897d69	-0.26853493
191	0xbf11c9f3	-0.56948775
192	0x3f074070	0.528327
193	0xbe1adcd0	-0.15123296
194	0x3e98d607	0.2985079
195	0xbebc5e50	-0.36790705
196	0xbf24bec8	-0.6435361
197	0xbe036710	-0.12832284
198	0x3eb7b8b6	0.3588311
199	0x3f3b1e6b	0.7309329
200	0x3e7c7d86	0.24657258
201	0xbe9917e0	-0.29901028
202	0x3f439bd4	0.7640965
203	0xbf4cf2f1	-0.800582
204	0xbe6be620	-0.23037004
205	0xbe53c899	-0.2068199
206	0xbf2c1fc2	-0.6723596
207	0x3ea9292b	0.3303922
208	0x3edf3749	0.43596867
209	0xbd376549	-0.044774327
210	0xbe898427	-0.26858637
211	0x3ea403e7	0.32034227
212	0xbe995186	-0.2994501
213	0xbe90f892	-0.28314644
214	0xbf5dea31	-0.8668547
215	0xbf020c9c	-0.5080049
216	0xbe94b891	-0.29047063
217	0x3e622f43	0.22088341
218	0xbeb4ada9	-0.35288742
219	0xbf0eb719	-0.55748135
220	0xbf015b1b	-0.5052964
221	0x3f1cee14	0.6130078
222	0x3f1f7aa0	0.62296486
223	0x3f40e9f6	0.75356996
224	0x3e6893c7	0.22712623
225	0x3de6f35b	0.11276885
226	0x3e284f1d	0.1643643
227	0x3ee7df30	0.45287466
228	0xbe732e61	-0.23748161
229	0xbf13b555	-0.57698566
230	0x3eeaa69c	0.45830238
231	0x3eaeec13	0.34164485
232	0x3e536992	0.2064574
233	0x3f18e9c9	0.5973173
234	0xbf1ef21b	-0.62088174
235	0xbef80366	-0.48440093
236	0xbe8d5b73	-0.27608833
237	0xbed1f711	-0.4100881
238	0xbc1ce510	-0.009576097
239	0x3d49a5b3	0.04923029
240	0x3d8b8e70	0.06814277
241	0xbe0982bd	-0.13428779
242	0xbc22b41f	-0.0099306395
243	0xbeae4e7b	-0.3404425
244	0x3e778ab3	0.24174003
245	0x3e527664	0.20552975
246	0x3d66a263	0.056307208
247	0x3eea3d93	0.45750102
248	0x3f46e490	0.7769251
249	0x3f347f46	0.70506704
250	0x3ec17a28	0.3778851
251	0x3d0e1a20	0.034692883
252	0x3e5bfa72	0.21482256
253	0xbf521cbc	-0.82075095
254	0x3d70dceb	0.058804434
255	0x3ed5b682	0.41740805

l1.weight f4 [256, 512]
0	0x3e035663	0.12825923
1	0x3dbb226a	0.09137423
2	0x3cd7101c	0.026252799
3	0x3cde2660	0.027117908
4	0x3d5d8411	0.054081026
5	0xbe2bcfeb	-0.16778533
6	0x3c187a8a	0.009306559
7	0x3c1ea208	0.009682186
8	0x3e4b6ec9	0.1986648
9	0x3e6f5c69	0.23375095
10	0x3d564bbb	0.052318316
11	0xbeac6df3	-0.33677635
12	0x3d5df45a	0.05418811
13	0xbd2f17ef	-0.042747434
14	0xbdeaaf51	-0.1145922
15	0x3e1cb2e6	0.1530262
16	0xbd9f4fc5	-0.07778887
17	0x3de15519	0.11002559
18	0x3d466f4c	0.048445985
19	0xbdb7b367	-0.08969765
20	0xbda414f3	-0.08011808
21	0xbde586f1	-0.11207379
22	0xbdceccd1	-0.100976594
23	0xbe3ff7ab	-0.18746822
24	0x3e009f0f	0.12560676
25	0xbd4ed3de	-0.05049502
26	0x3da121c9	0.07867772
27	0x3d24f266	0.04027023
28	0xbe815f06	-0.2526781
29	0xbe59b017	-0.21258579
30	0x3b2655c0	0.00253807
31	0xbd160d03	-0.036633503
32	0xbb8b6bc9	-0.0042547924
33	0xba9bf34f	-0.0011898073
34	0x3e184bdf	0.14872693
35	0x3d19eb09	0.037577663
36	0xbd99f4dd	-0.07517407
37	0x3e60741d	0.21919294
38	0x3d1b8e63	0.037977587
39	0x3d62fb93	0.0554157
40	0xbda54e51	-0.08071578
41	0xbd811b6a	-0.06304057
42	0x3d339759	0.04384551
43	0xbc9370a6	-0.01799805
44	0x3dd6f807	0.10496526
45	0xbe0ffb26	-0.1406065
46	0xbc977806	-0.018489849
47	0x3e5b967c	0.21444124
48	0xbdb1ad86	-0.08675675
49	0x3e5d16e3	0.21590762
50	0x3e22a6bd	0.15883918
51	0xbe10ae64	-0.14129025
52	0xbbe888a8	-0.007096369
53	0xbd8d51f1	-0.06900395
54	0xbcebce5f	-0.028784929
55	0x3cfe09e9	0.031010585
56	0xbda0e31e	-0.07855819
57	0x3dd9da08	0.10637289
58	0x3e8f2352	0.27956635
59	0x3e46741b	0.19380228
60	0x3dbf20ca	0.09332426
61	0x3da4cae2	0.08046509
62	0x3eac8838	0.33697677
63	0x3e625860	0.22104025
64	0x3db16c07	0.08663183
65	0x3e3bd381	0.18342401
66	0xbdd48651	-0.10377181
67	0xbc72a4aa	-0.014809767
68	0x3d4c2eb3	0.049849223
69	0xbe0c24a7	-0.13685857
70	0xbdaf5865	-0.08561782
71	0x3d9edb0e	0.07756625
72	0x3dc2aec2	0.09505989
73	0x3e2ac603	0.16677098
74	0xbd82104d	-0.063507654
75	0x3d5e90f0	0.054337442
76	0xbca5008f	-0.020141868
77	0xbc89016e	-0.016724315
78	0xbb66a2db	-0.0035192284
79	0xbd9b7920	-0.07591462
80	0x3d734b97	0.05939826
81	0x3da83978	0.08214086
82	0xbd507e1d	-0.05090152
83	0x3d2d389b	0.04229031
84	0xbcf0992f	-0.029369919
85	0xbe30eaab	-0.17277019
86	0xbc46d9f1	-0.012136922
87	0xbdd96a94	-0.10616031
88	0xbdb24c61	-0.08705974
89	0xbcf7dfda	-0.030258108
90	0xbc7cd999	-0.015432739
91	0x3dab5aac	0.08366904
92	0xbd82ced8	-0.063871086
93	0x3d64fa44	0.055902734
94	0x3e004032	0.12524489
95	0x3e4f0107	0.20215236
96	0x3bd2932b	0.006426235
97	0x3e0d5a81	0.13804056
98	0xbe402a81	-0.18766214
99	0x3d29d03f	0.041458365
100	0xbe206ecd	-0.15667267
101	0x3ad3557e	0.0016123501
102	0xbd986205	-0.07440571
103	0x3af9ac6c	0.0019048578
104	0xbde010de	-0.10940717
105	0x3d9f6264	0.077824384
106	0xbe8c7c2c	-0.27438486
107	0xbdff40b0	-0.1246351
108	0x3d71fff2	0.05908198
109	0x3c994190	0.01870802
110	0x3d65c9d7	0.056100693
111	0x3de25585	0.11051468
112	0x3dd858d9	0.10563821
113	0xbd0126f5	-0.031531293
114	0xbe97667b	-0.29570374
115	0x3dcb1806	0.099166915
116	0x3e7f683c	0.24942106
117	0xbd9dc643	-0.07703831
118	0xbd39d893	-0.045372557
119	0xbd378136	-0.04480096
120	0xbdb10709	-0.0864392
121	0x3d9e92c0	0.07742834
122	0x3d74e26f	0.059786256
123	0xbdca0ed1	-0.09866107
124	0x3e13132b	0.14362781
125	0x3d9c9519	0.076456256
126	0xbd298a13	-0.041391443
127	0xbd852481	-0.06501103
128	0xbc842325	-0.01613004
129	0x3cdea2cc	0.027177237
130	0xbd38be49	-0.045103345
131	0xbde4ea44	-0.11177495
132	0x3d1c88b3	0.038216304
133	0x3c361911	0.011114375
134	0xbcd884ef	-0.026430575
135	0xbd9936e0	-0.0748117
136	0x3d94090e	0.072282895
137	0x3c505324	0.012715135
138	0x3e0c7e78	0.13720119
139	0xbd312fc6	-0.04325845
140	0x3e88f554	0.2674967
141	0x3c86e05b	0.016464403
142	0x3e37b811	0.1794131
143	0xb965d617	-0.00021918897
144	0xbe59da65	-0.21274717
145	0x3d377a85	0.044794578
146	0x3e144bf2	0.14482096
147	0x3e1c9cf8	0.15294254
148	0x3df96762	0.12177922
149	0xbdcda2ec	-0.100408405
150	0xbde3e009	-0.11126716
151	0x3e33b892	0.17550877
152	0xbdf14b16	-0.117819
153	0x3de3d818	0.11125201
154	0xbe9ff9ec	-0.31245363
155	0xbd03aa46	-0.032144807
156	0x3d8597e3	0.06523111
157	0xbdeacb9b	-0.11464616
158	0xbd720119	-0.059083078
159	0xbe2f3142	-0.17108634
160	0x3e99dd9a	0.3005188
161	0xbe08e4f1	-0.13368584
162	0x3dd43030	0.103607535
163	0xbe75a882	-0.23990062
164	0xbe6615b3	-0.22469215
165	0xbdf98cf4	-0.12185088
166	0xbe43c47c	-0.19117922
167	0x3d8da5e9	0.069164105
168	0x3e828123	0.25489148
169	0x3d21d4f5	0.039509732
170	0xbe84b285	-0.2591745
171	0xbd298f93	-0.04139669
172	0xbd977d94	-0.07396999
173	0xbd8829d1	-0.06648601
174	0xbdb8f421	-0.09030939
175	0x3e6bb2ce	0.23017427
176	0xbd7e99f5	-0.062158544
177	0xbe359111	-0.1773112
178	0x3e589708	0.21151364
179	0xbd461303	-0.048357975
180	0xbc7961d1	-0.015221075
181	0x3e1c99c2	0.15293029
182	0xbe20196a	-0.15634695
183	0x3db64b74	0.0890111
184	0x3e20be22	0.1569753
185	0xbe6f4ade	-0.23368403
186	0x3d1ffc0a	0.039058723
187	0xbdd75794	-0.10514751
188	0xbd58bafe	-0.052912705
189	0xbd2ec128	-0.042664677
190	0x3db14e5c	0.08657524
191	0xbdcb0a23	-0.09914043
192	0x3dc46397	0.09589308
193	0xbdc2a818	-0.095047176
194	0xbda798dc	-0.081834525
195	0x3c4e9675	0.012609114
196	0x3e0d1b1d	0.13779874
197	0x3d3d4bdc	0.046214923
198	0x3e5952f7	0.21223055
199	0x3e1219ff	0.14267729
200	0x3e1c1d8a	0.15245643
201	0xbe04d709	-0.12972654
202	0xbd2bc201	-0.041933063
203	0x3c42f580	0.011899352
204	0xbddd167e	-0.10795306
205	0xbd3ae3cd	-0.045627404
206	0xbdd33a7c	-0.103138894
207	0xbe5ad201	-0.21369173
208	0xbd87de96	-0.06634252
209	0x3e31bfd5	0.17358334
210	0x3c1cabd2	0.0095624495
211	0x3dd13169	0.10214502
212	0xbdb0901a	-0.08621235
213	0x3e20605f	0.15661763
214	0xbe20a126	-0.15686473
215	0x3c80ab31	0.01570663
216	0x3e335994	0.1751464
217	0xbdf47ac6	-0.1193748
218	0x3d2bcc12	0.041942663
219	0xbd289122	-0.041154034
220	0xbe2f4ac1	-0.1711836
221	0x3df51e42	0.11968662
222	0x3de05b8c	0.10954961
223	0x3ddd965d	0.10819695
224	0xbd8b7484	-0.06809333
225	0x3dd0ddfa	0.10198589
226	0xbc0d637b	-0.008629675
227	0x3e15db2e	0.14634392
228	0xbdb3b5c4	-0.087749034
229	0xbe6ff3dd	-0.2343287
230	0xbdade9a6	-0.084918305
231	0x3d9f1be2	0.0776899
232	0xbda6ba84	-0.08141044
233	0x3d175a83	0.036951553
234	0xbe99158d	-0.29899254
235	0xbe16f588	-0.147421
236	0xbb45a760	-0.0030159578
237	0x3e7b98a6	0.2456995
238	0x3d6c5bdd	0.057704795
239	0x3dea04c1	0.11426688
240	0xbd9192e4	-0.07108095
241	0xbcf3588b	-0.029705307
242	0xbdf5ffe8	-0.12011701
243	0xbe2678de	-0.16257045
244	0xbe69a4fa	-0.2281684
245	0xbd014275	-0.03155752
246	0x3e207540	0.15669727
247	0x3e4edc74	0.20201284
248	0x3ddf243f	0.10895585
249	0x3d321bf4	0.04348369
250	0xbdd64328	-0.10462028
251	0xbde92d4b	-0.11385592
252	0x3e2a909e	0.1665673
253	0xbe035e97	-0.12829052
254	0xbe1cadf0	-0.15300727
255	0xbe72f8fe	-0.23727795

l1.bias f4 [256]
0	0xbcf7833a	-0.03021394
1	0xbd898975	-0.06715671
2	0xbe1155c2	-0.1419287
3	0xbd5278d1	-0.05138475
4	0xbd636e9e	-0.055525415
5	0xbd5d9fc2	-0.054107435
6	0xbd53de8b	-0.051725905
7	0xbdb1a808	-0.086746275
8	0xbc60125c	-0.013676252
9	0xbab4c745	-0.0013792297
10	0xbd693abf	-0.05694079
11	0xbd893594	-0.06699672
12	0xbe196652	-0.14980438
13	0xbde7a407	-0.113105826
14	0xbe3dce60	-0.18535757
15	0x3c3a2b81	0.011362911
16	0xbd3d594d	-0.046227742
17	0xbceeb4d9	-0.02913897
18	0xbd53ef3b	-0.05174182
19	0xbdbdeeb2	-0.09274043
20	0xbd705981	-0.058679108
21	0xbd88e685	-0.06684593
22	0x3dcb977c	0.09941003
23	0xbd954e5c	-0.072903365
24	0xbc0c282d	-0.0085545005
25	0xbdfb16b4	-0.1226019
26	0xbe018cca	-0.12651363
27	0xbd358c09	-0.044323
28	0xbe569840	-0.20956516
29	0xbd87506a	-0.06607135
30	0xbdd7b28c	-0.10532102
31	0xbd84de13	-0.0648767
32	0xbc87c481	-0.016573193
33	0xbd25e6da	-0.04050336
34	0xbdf01082	-0.117218986
35	0xbd46254f	-0.048375424
36	0xbd33f181	-0.043931488
37	0xbd976257	-0.07391804
38	0xbd84d2c1	-0.064855106
39	0xbd602143	-0.05471922
40	0xbdd5aacb	-0.10432967
41	0xbdbb9109	-0.09158523
42	0xbe30c3f2	-0.17262247
43	0xbdeada4e	-0.114674196
44	0xbd69f9e0	-0.057123065
45	0xbd18b1f9	-0.037279103
46	0xbdb0a98e	-0.0862609
47	0xbdc78f9b	-0.097441874
48	0xbde4888b	-0.11158856
49	0xbcba084e	-0.022709038
50	0xbd82059a	-0.06348725
51	0xbdebd69c	-0.11515543
52	0xbdf74808	-0.12074286
53	0x3d28af4a	0.041182794
54	0xbd75cfa6	-0.060012482
55	0xbd954f6d	-0.0729054
56	0xbd9dfb47	-0.07713943
57	0xbd9e2a16	-0.07722871
58	0x3c8113c9	0.015756505
59	0xbd937994	-0.072009236
60	0xbdc8e3bd	-0.09809063
61	0xbde958c0	-0.11393881
62	0xbd9a2128	-0.07525855
63	0xbd74dd07	-0.0597811
64	0xbdc5f587	-0.09665971
65	0x3d8b202c	0.06793246
66	0xbe02eb2f	-0.12785028
67	0xbd0bb6ba	-0.03410981
68	0x3d010929	0.031502876
69	0x3cbf6bcf	0.023366837
70	0xbe29a199	-0.16565551
71	0xbdbda037	-0.09259074
72	0xbe23d26c	-0.15998238
73	0xbd463baf	-0.048396762
74	0xbd5b9f2b	-0.05361859
75	0xbe33cd35	-0.17558749
76	0xbdc0fcb3	-0.094231986
77	0x3d25fcef	0.04052442
78	0xbd945d79	-0.07244391
79	0x3ce67e05	0.028136263
80	0xbdd0e66e	-0.10200201
81	0xbd683eca	-0.056700505
82	0xbbb6d74b	-0.005579864
83	0x3d180e6e	0.037123136
84	0xbd399828	-0.045311123
85	0xbd9b5b66	-0.07585792
86	0xbdda7697	-0.106671505
87	0xbd0a2a71	-0.03373188
88	0xbd93d1b9	-0.07217736
89	0xbd8b7623	-0.06809642
90	0xba3e86b3	-0.00072679966
91	0xbd98236d	-0.07428632
92	0xbaba023b	-0.0014191339
93	0xbaed2238	-0.0018091863
94	0x3c7f06c1	0.015565575
95	0xbe0e6f79	-0.13909711
96	0xbdb52c74	-0.088463694
97	0xbcbd020e	-0.023072269
98	0xbd2b9161	-0.04188669
99	0xbd673b43	-0.056453
100	0xbd349ef4	-0.044096902
101	0xbd40eda2	-0.047101624
102	0xbe49de90	-0.19713807
103	0xbe1e6398	-0.1546768
104	0xbd0aab07	-0.03385451
105	0xbddb60ba	-0.107118085
106	0x3d0109a0	0.03150332
107	0xbb2f428a	-0.0026742541
108	0xbbaecb24	-0.005334275
109	0xbe4636bc	-0.19356817
110	0x3bfe01c1	0.007751674
111	0xbc2e21ff	-0.0106282225
112	0xbd964d9d	-0.07339022
113	0x3c50bf54	0.012740929
114	0xbd8cb483	-0.068703674
115	0xbd2710c1	-0.040787462
116	0xbe44d278	-0.19220912
117	0xbd9ded4e	-0.07711278
118	0x3c715438	0.014729552
119	0xbdb7557b	-0.08951851
120	0xbd923932	-0.071398154
121	0xbe430191	-0.19043566
122	0xbc4c48b4	-0.012468506
123	0xbe08b3c0	-0.13349819
124	0xbdbc7d7e	-0.09203623
125	0xbd1d3edf	-0.038390037
126	0xbd7d0558	-0.061772674
127	0xbe271ac8	-0.1631881
128	0xbcd6e9c5	-0.026234517
129	0xbe0c9aed	-0.13730974
130	0x3c95e9af	0.018299906
131	0x3d2f4993	0.042794775
132	0x3ca6585e	0.020305809
133	0xbdfde2e2	-0.1239679
134	0xbd630f11	-0.05543429
135	0xbddac967	-0.10682946
136	0xbd89387e	-0.06700228
137	0x3ca2ab94	0.019857205
138	0xbdd48865	-0.10377578
139	0xbbeca8e9	-0.007222284
140	0xbd465708	-0.048422843
141	0xbd772eb0	-0.06034726
142	0xbe04f9e1	-0.12985946
143	0xbe258182	-0.16162685
144	0xbe1e1f1c	-0.15441555
145	0xbd895655	-0.0670592
146	0xbda3c0d2	-0.07995762
147	0xbd906c54	-0.07051912
148	0xbdc4020b	-0.09570702
149	0xbe12ebc0	-0.14347744
150	0xbd996929	-0.07490761
151	0xbc202d46	-0.009776419
152	0xbd5688d1	-0.052376572
153	0xbd8aaa92	-0.06770815
154	0xbc118d6c	-0.008883815
155	0xbd50c8b6	-0.050972663
156	0xbe348883	-0.176302
157	0xbce9e0c9	-0.028549569
158	0xbd07c471	-0.033146325
159	0xbd6a3155	-0.057175953
160	0xbe238458	-0.15968454
161	0x3cb7c46c	0.022432528
162	0x3c7de9b2	0.015497612
163	0xbd8c5da3	-0.06853797
164	0xbd65cad3	-0.05610163
165	0xbd8af4c0	-0.067849636
166	0xbd2271ba	-0.03965924
167	0xbd29997c	-0.04140614
168	0xbd88c756	-0.06678645
169	0xbd6f142f	-0.058368858
170	0xbe0aa0ae	-0.13537857
171	0xbd3e40bc	-0.046448454
172	0x3cb0a307	0.021562112
173	0xbe08d677	-0.13363062
174	0xbc5be2f1	-0.013420806
175	0xbd734585	-0.05939247
176	0xbdbc23cd	-0.09186516
177	0xbdd4088d	-0.103531934
178	0xbdd5138f	-0.10404121
179	0xbd6eef03	-0.058333408
180	0xbd916eb5	-0.07101194
181	0xbdb27521	-0.08713747
182	0xbd805d0a	-0.06267746
183	0xbe0ce0ae	-0.13757583
184	0xbdf6fe14	-0.1206018
185	0xbd082856	-0.033241592
186	0xbdbe960d	-0.09305964
187	0xbbd8edcf	-0.006620146
188	0xbca8a995	-0.020588676
189	0xbdb82623	-0.08991649
190	0x3d2fa5f8	0.04288289
191	0xbdeda3c2	-0.116035
192	0xbdc34997	-0.095355205
193	0xbdbb765f	-0.09153437
194	0xbcb2a13f	-0.021805404
195	0xbd9e7b58	-0.0773837
196	0xbd95eb93	-0.07320323
197	0xbd79300b	-0.060836833
198	0xbd97334d	-0.07382832
199	0xbc40e458	-0.011773191
200	0xbe2c217b	-0.16809647
201	0x3c80d056	0.015724342
202	0xbd07dd1b	-0.033169847
203	0x3d18e93d	0.03733181
204	0xbe02b4e9	-0.12764324
205	0xbd0b5786	-0.034019016
206	0xbe019668	-0.12655032
207	0x3d901691	0.07035554
208	0xbd8454f1	-0.06461514
209	0xbc9b3cfb	-0.018949976
210	0x3d8ee95b	0.06978103
211	0xbe08f9ef	-0.13376592
212	0x3d387050	0.045028985
213	0xba622501	-0.000862673
214	0x3cc31e5c	0.023818187
215	0xbdadb16a	-0.08481105
216	0xbda0d0a7	-0.07852297
217	0xbd2833cd	-0.041065026
218	0xbe86c95d	-0.26325503
219	0xbd0d0f44	-0.034438387
220	0xbbe2fa43	-0.006926806
221	0xbd852f46	-0.06503157
222	0xbdd6bf39	-0.104856916
223	0xbd5e672a	-0.054297604
224	0xbd60a125	-0.05484118
225	0xbd414fd8	-0.047195286
226	0xbdc0dd2a	-0.09417184
227	0xbc713c5b	-0.0147238625
228	0xbe4f949d	-0.20271535
229	0x3c9a4c9b	0.018835356
230	0xbcf50f84	-0.029914625
231	0xbcaaefdc	-0.020866327
232	0xbd8db239	-0.06918759
233	0x3d322bf1	0.043498937
234	0xbdc4e423	-0.09613826
235	0xbd59a742	-0.053138025
236	0xbd445356	-0.047931038
237	0xbe107716	-0.14107928
238	0x3d0e24a2	0.034702905
239	0xbe2bf1f1	-0.16791512
240	0xbde70a6e	-0.11281286
241	0xbd52e2dc	-0.05148588
242	0xbd2ad72d	-0.041709114
243	0xbd943403	-0.07236483
244	0x3be40b1a	0.006959331
245	0xbd2e8167	-0.042603876
246	0xbdc81da4	-0.097712785
247	0xbe109b71	-0.14121796
248	0xbd8fe564	-0.07026175
249	0xbe0f11d8	-0.1397165
250	0xbd379a27	-0.044824746
251	0xbd367e6a	-0.04455415
252	0xbca09ccf	-0.019606022
253	0x3cdc181f	0.02686697
254	0xbc66aab6	-0.014078787
255	0xbc564fca	-0.013080547

l2.weight f4 [256, 256]
0	0x3b4c3d9f	0.0031164659
1	0x3dd7c53c	0.10535666
2	0x3de7f84c	0.11326656
3	0x3d1365ff	0.035985943
4	0xbcbafd7d	-0.02282595
5	0x3db163a5	0.08661584
6	0xbd864776	-0.06556599
7	0xbe2e245d	-0.17006059
8	0xbe111759	-0.14169063
9	0x3c73c3d7	0.014878235
10	0xbeefdce5	-0.46848217
11	0x3d8167c0	0.06318617
12	0x3b56b66a	0.0032762536
13	0xbd038e7f	-0.032118317
14	0x3d9dc0c9	0.077027865
15	0xbdf1e64f	-0.11811506
16	0xbe892bf7	-0.26791355
17	0xbdf3f2b7	-0.119115286
18	0xbdf19699	-0.11796302
19	0xbe023f8e	-0.12719557
20	0x3d87bb5e	0.06627534
21	0xbe22be8d	-0.15893002
22	0xbc82aa7c	-0.015950434
23	0x3d8036b9	0.062604375
24	0xbe208fe7	-0.15679894
25	0x3d968872	0.07350244
26	0xbe0cf595	-0.13765557
27	0x3e39bf09	0.1813928
28	0xbbea1dfb	-0.007144687
29	0xbd85630f	-0.065130346
30	0xbe96bb45	-0.2943975
31	0xbe0a9551	-0.13533522
32	0xbe4d544c	-0.20051688
33	0xbe76bc56	-0.24095282
34	0x3d98e914	0.07466331
35	0xbd4ff702	-0.050772674
36	0xbe08deeb	-0.13366286
37	0xbd514c2c	-0.051098034
38	0xbe96b6d5	-0.29436365
39	0xbd8ab57c	-0.06772897
40	0x3d6593f7	0.056049313
41	0x3da0b005	0.07846073
42	0x3daa5548	0.08317047
43	0xbda708b5	-0.081559576
44	0xbdf726a8	-0.1206792
45	0xbe995205	-0.29945388
46	0xbdd6cc37	-0.1048817
47	0xbc977c0a	-0.018491764
48	0x3d539beb	0.051662367
49	0xbf0cb9fd	-0.54971296
50	0xbd7d0936	-0.061776362
51	0xbde5afc3	-0.112151645
52	0xbda5d462	-0.080971494
53	0x3d2a08a9	0.041512165
54	0xbe19a8fd	-0.1500587
55	0x3d97d277	0.0741319
56	0x3dd4c6eb	0.10389503
57	0x3e22b581	0.15889551
58	0xbd745f02	-0.05966092
59	0x3e882ea7	0.26598093
60	0x3c1ed82b	0.009695093
61	0xbde9d90c	-0.114183515
62	0xbec487ab	-0.38384756
63	0x3e2f18ea	0.17099348
64	0xbeccc586	-0.39994448
65	0xbd80d7ac	-0.06291136
66	0xbd8d86ad	-0.06910453
67	0xbda00914	-0.078142315
68	0x3e9a8ef8	0.30187201
69	0x3e87243a	0.26394826
70	0x3e7b03f0	0.24513221
71	0xbd8f45de	-0.06995748
72	0x3edf32de	0.43593496
73	0xbddf62f4	-0.10907546
74	0xbed2fd5e	-0.4120893
75	0x3e2b4e24	0.16729027
76	0xbe81821d	-0.2529458
77	0xbe9a7258	-0.30165362
78	0x3d6b9e66	0.057524107
79	0xbe80c7ba	-0.2515238
80	0xbd68ebc2	-0.05686546
81	0xbe82c048	-0.25537324
82	0x3ccff5fe	0.025385853
83	0xbef75fa8	-0.48315167
84	0x3e072e7a	0.13201323
85	0x3c4cb545	0.01249439
86	0x3beea4bf	0.007282823
87	0xbea0db5f	-0.31417367
88	0x3dc8a08a	0.097962454
89	0x3e400156	0.1875051
90	0x3e0b038e	0.13575575
91	0x3cf8e9f2	0.030384991
92	0x3ef0ac8e	0.4700665
93	0x3e8d8830	0.27642965
94	0xbde06b14	-0.109579235
95	0x3c7c2477	0.015389553
96	0xbf088635	-0.53329784
97	0xbe077bda	-0.1323084
98	0xbe735ff1	-0.23767067
99	0xbe055154	-0.13019305
100	0xbce1f138	-0.027580842
101	0x3dd2e673	0.10297861
102	0x3e205427	0.15657102
103	0xbd32e254	-0.043672875
104	0xbe78c37b	-0.2429332
105	0x3e8740d5	0.2641665
106	0xbe9b6708	-0.30352044
107	0xbca781f7	-0.020447714
108	0xbd4c7574	-0.0499167
109	0xbe374718	-0.17898214
110	0xbe67eda3	-0.22649245
111	0xbdfa50a8	-0.12222415
112	0x3ed18e6f	0.4092898
113	0xbe44d389	-0.1922132
114	0xbe6d29f0	-0.23160529
115	0x3d67eacb	0.0566204
116	0xbdc8ee84	-0.09811118
117	0xbe7a97bb	-0.24471943
118	0xbd0065ef	-0.03134721
119	0x3ec450cb	0.3834289
120	0x3e85bbf3	0.26119956
121	0xbdcfd3b7	-0.10147803
122	0x3e423296	0.1896461
123	0x3e97ddd6	0.29661435
124	0x3ce998dc	0.028515272
125	0xbe5c49ac	-0.21512479
126	0x3e12ab4e	0.1432316
127	0xbdf34ddc	-0.11880085
128	0xbec0dbba	-0.37667638
129	0xbd576d62	-0.05259455
130	0xbe6a6929	-0.22891678
131	0xbe404bc8	-0.18778908
132	0xbbb992b6	-0.0056632413
133	0x3dcf3972	0.10118379
134	0xbd126bef	-0.035747465
135	0xbee3be96	-0.44481343
136	0x3e07a087	0.1324483
137	0x3e012aca	0.12613979
138	0x3d7a5a5e	0.061121337
139	0xbe2784bd	-0.1635923
140	0xbe48d7a2	-0.19613507
141	0xbe389f1f	-0.1802945
142	0x3daf602e	0.08563267
143	0xbd59840b	-0.05310444
144	0xbd8c7531	-0.0685829
145	0xbf54d2ed	-0.8313435
146	0x3de5de5a	0.11224051
147	0xbe257975	-0.16159613
148	0xbe14af86	-0.14520082
149	0x3e543bc8	0.2072593
150	0xbdc5be51	-0.096554406
151	0x3e358dbd	0.1772985
152	0x3e563b80	0.20921135
153	0xbd8df9e0	-0.069324255
154	0xbc190be7	-0.009341217
155	0x3cbc2f47	0.022971762
156	0x3dd8da6f	0.10588538
157	0x3cceb769	0.025233941
158	0x3e746c28	0.23869383
159	0x3e70d563	0.235189
160	0xbe84572a	-0.2584775
161	0xbe35173b	-0.17684643
162	0xbe609d09	-0.21934904
163	0x3dcca689	0.099927016
164	0x3e0f0cba	0.13969699
165	0xbe3e5fe1	-0.18591262
166	0xbc65eae9	-0.014033058
167	0xbdd278ca	-0.10276945
168	0x3e49a3d5	0.19691403
169	0xbe2292aa	-0.1587626
170	0x3ed513e7	0.41616747
171	0xbee4efa4	-0.4471408
172	0xbf24c5c7	-0.64364284
173	0xbd62d46e	-0.05537837
174	0xbb71cf12	-0.0036897105
175	0x3dd98734	0.10621491
176	0xbdf5a849	-0.119949885
177	0xbf01915a	-0.50612414
178	0xbdb5ef74	-0.08883563
179	0xbdca8a75	-0.0988969
180	0xbebdb44f	-0.37051627
181	0x3e5685c3	0.20949464
182	0xbca6a6d3	-0.02034322
183	0x3d363ccd	0.044491578
184	0xbe927ada	-0.28609353
185	0xbdeda50d	-0.116037466
186	0x3d52e60f	0.051488932
187	0xbe340dbb	-0.17583363
188	0xbdda7fad	-0.106688835
189	0xbd6035da	-0.054738857
190	0x3e0dfcc1	0.13865949
191	0x3e24c880	0.1609211
192	0x3e663e08	0.224846
193	0xbe816097	-0.25269005
194	0xbf181ad6	-0.5941595
195	0xbeb57dec	-0.35447633
196	0xbd615dec	-0.05502121
197	0xbe0cae5a	-0.13738385
198	0x3d11fd60	0.035642028
199	0x3ea61af4	0.3244244
200	0x3d8a32c2	0.067479625
201	0xbe77fc71	-0.24217393
202	0xbe7af955	-0.24509175
203	0xbda16dc2	-0.07882263
204	0xbe09d517	-0.13460194
205	0xbe059a41	-0.13047124
206	0xbe2405b9	-0.16017808
207	0xbe470b05	-0.19437797
208	0xbe39e99d	-0.18155523
209	0x3dbdb3e8	0.0926283
210	0xbdf3a9a2	-0.11897589
211	0x3d4599db	0.04824243
212	0x3e993b5a	0.29928094
213	0x3e043cdd	0.12913842
214	0x3f0309cd	0.5118683
215	0x3e09d235	0.13459094
216	0xbdd1e61b	-0.10248967
217	0xbe71e17b	-0.2362117
218	0x3c3a01d4	0.011352975
219	0xbdbb1c50	-0.091362596
220	0xbd8f5280	-0.069981575
221	0x3d52705b	0.05137668
222	0x3cbfdfdb	0.023422172
223	0xbe0715c0	-0.1319189
224	0xbe20d932	-0.15707853
225	0xbdab5bbd	-0.08367107
226	0x3dfb2cf0	0.122644305
227	0xbec9660d	-0.3933567
228	0xbd7b4f21	-0.06135476
229	0xbee774d9	-0.45206335
230	0x3de56ebf	0.11202764
231	0x3d95abc1	0.0730815
232	0xbe1b7a44	-0.1518336
233	0x3d014f3c	0.031569704
234	0xbcee9a56	-0.029126327
235	0xbe77d533	-0.24202423
236	0xbd0edb41	-0.034877066
237	0xbeb471b5	-0.35243002
238	0xbe32cb12	-0.17460278
239	0xbcccb3a8	-0.02498801
240	0x3ebdee8c	0.3709606
241	0x3d09add1	0.03361303
242	0xbdde9497	-0.10868185
243	0x3d86ee63	0.065884374
244	0xbe69bf14	-0.22826797
245	0xbd62f11d	-0.055405725
246	0x3d81485f	0.06312632
247	0xbe8e23d2	-0.27761704
248	0xbe5816cf	-0.21102451
249	0xbda3eb77	-0.08003896
250	0xbd50f5da	-0.051015712
251	0xbd8f35c5	-0.069926776
252	0xbe7906d1	-0.24319007
253	0xbedbaf9e	-0.42907423
254	0xbe5f3165	-0.21796186
255	0x3db37acc	0.08763656

l2.bias f4 [256]
0	0xbde73f74	-0.112913996
1	0xbe1ddadb	-0.15415518
2	0xbde3386b	-0.11094745
3	0xbe4f2020	-0.20227098
4	0xbe121728	-0.14266646
5	0x3b6e09e9	0.0036321825
6	0xbdb05b49	-0.08611161
7	0xbd099638	-0.033590525
8	0xbe49f5fc	-0.19722742
9	0x3d978041	0.07397509
10	0x3e1f622e	0.15564796
11	0xbdbe9e0b	-0.09307488
12	0xbdd4e172	-0.10394563
13	0x3d15aa45	0.036539335
14	0xbe6933f4	-0.22773725
15	0xbd588ea7	-0.05287042
16	0xbe04c1aa	-0.12964502
17	0xbd93bfe7	-0.07214337
18	0xbbb87f8b	-0.0056304387
19	0xbcb3b376	-0.02193616
20	0xbd8f18a3	-0.06987121
21	0xbdc012fe	-0.093786225
22	0x3cd55ef9	0.026046263
23	0xbcee0136	-0.029053312
24	0xbe1f7a3f	-0.15573977
25	0xbe23ac9f	-0.15983818
26	0xbe238891	-0.15970065
27	0xbe0cd339	-0.1375245
28	0xbc85cd51	-0.016333254
29	0xbc8d40e7	-0.017242862
30	0xbda73ec9	-0.08166272
31	0xbdeb3b1e	-0.11485885
32	0xbd9ba1f2	-0.07599248
33	0xbd4dda43	-0.05025698
34	0xbd7d348e	-0.0618177
35	0xbe65c5b0	-0.22438693
36	0x3d21792b	0.039422195
37	0x3d181c2d	0.037136246
38	0xbe186b31	-0.1488464
39	0xbd2168e7	-0.039406683
40	0xbe3e272f	-0.18569635
41	0x3ca8296b	0.020527562
42	0xbd800465	-0.06250838
43	0xbdd76a56	-0.10518329
44	0xbdc999f9	-0.09843821
45	0xbe581374	-0.21101171
46	0xbe34f272	-0.1767061
47	0xbcb9810a	-0.022644538
48	0xbda5537f	-0.08072566
49	0xbdc97b37	-0.098379545
50	0xbe138a03	-0.14408116
51	0xbdbdaba8	-0.092612565
52	0xbdfc2680	-0.12312031
53	0xbbaf8bc3	-0.005357237
54	0xbd5e4b8e	-0.054271273
55	0x3bffe3ff	0.0078091617
56	0xbce0a727	-0.027423454
57	0xbd40a265	-0.04702987
58	0xbc448fa3	-0.011997136
59	0xbe2aa3c6	-0.16664037
60	0xbe130391	-0.14356829
61	0xbd83e102	-0.06439401
62	0x3cf65056	0.030067604
63	0xbdb878b6	-0.09007399
64	0xbccef8d8	-0.025265142
65	0x3d022488	0.03177312
66	0xbe34adc5	-0.17644413
67	0xbe546a8e	-0.20743772
68	0xbdbf36e7	-0.09336644
69	0x3c57fa73	0.01318227
70	0xbd51da61	-0.051233653
71	0xbbe0059c	-0.006836606
72	0xbd972886	-0.07380776
73	0xbd3c1653	-0.045919728
74	0xbcfff038	-0.031242475
75	0xbcfce333	-0.030870056
76	0xbd390407	-0.045169856
77	0xbcd4e4f8	-0.025988087
78	0xbda472a3	-0.08029678
79	0xbdc2cdcc	-0.09511909
80	0xbdc610ca	-0.09671171
81	0xbe3b3ade	-0.18284175
82	0xbdd7ae18	-0.105312526
83	0xbe073d1e	-0.13206908
84	0x3e40e776	0.18838295
85	0xbe0dd719	-0.13851584
86	0xbcde3bbf	-0.027128099
87	0xbe796def	-0.24358343
88	0xbdd5630e	-0.10419284
89	0xbd968e07	-0.07351308
90	0x3d2cfc5e	0.042232864
91	0x3d8d399d	0.068957545
92	0xbe31a204	-0.1734696
93	0xbe497bcf	-0.19676135
94	0xbe1f594a	-0.15561405
95	0xbdfe91af	-0.12430131
96	0xbe69172f	-0.2276275
97	0xbdbbb4ac	-0.0916532
98	0xbdb1b375	-0.08676807
99	0xbd739cab	-0.059475582
100	0x3d5fbd9f	0.054624196
101	0xbdf956d6	-0.12174766
102	0xbe01978d	-0.12655468
103	0xbdb2033e	-0.08692025
104	0x3dab224d	0.08356152
105	0xbdb73092	-0.08944811
106	0x3d124561	0.035710696
107	0xbe17de5c	-0.14830917
108	0xbbff968a	-0.007799928
109	0xbd8d252a	-0.06891854
110	0xbd8e01ba	-0.06933923
111	0xbd6d5ae0	-0.057947993
112	0xbdafdc89	-0.085869856
113	0x3dcdad8d	0.10042868
114	0x3d603f32	0.054747768
115	0xbe83e2ee	-0.2575907
116	0xbdd9e570	-0.10639465
117	0x3d09335e	0.033496253
118	0xbe0cd71c	-0.13753933
119	0xbccc5da4	-0.024946995
120	0x3d59833e	0.053103678
121	0xbe0c8250	-0.13721585
122	0xbe16ea3c	-0.14737791
123	0xbe3c4a05	-0.18387611
124	0xbe8e3084	-0.2777139
125	0xbe7b8707	-0.24563228
126	0x3cc693ae	0.024240341
127	0xbe222a19	-0.15836371
128	0x3dc1ff7e	0.094725594
129	0x3df1525e	0.117832884
130	0xbd9dddfc	-0.07708356
131	0xbd6d91fe	-0.058000557
132	0xbc4ed1d6	-0.012623271
133	0xbcebf2b3	-0.028802251
134	0x3c2d6b78	0.010584705
135	0x3db6a183	0.08917525
136	0xbcf2bf06	-0.029632103
137	0xbd9bc61f	-0.07606148
138	0x3dba3277	0.09091657
139	0xbda7a7c9	-0.08186299
140	0xbe2a706e	-0.16644451
141	0x3b2d744a	0.0026467019
142	0xbd0f1541	-0.03493238
143	0xbde1ae3d	-0.110195614
144	0x3dcc89bc	0.09987208
145	0xbd4ecd5f	-0.050488826
146	0xbe182214	-0.1485675
147	0xbdafb1c9	-0.08578832
148	0xbbda1f55	-0.006656567
149	0xbe66437e	-0.22486684
150	0xbd848734	-0.064711004
151	0xbd8d39ea	-0.06895812
152	0xbc552ad3	-0.013010698
153	0x3bcd030d	0.006256467
154	0xbd9a3847	-0.07530265
155	0xbc1a8cdf	-0.009433
156	0xbdc5c30a	-0.096563414
157	0xbd7330aa	-0.05937258
158	0xbce4f389	-0.027948158
159	0xbd67f0ac	-0.056626007
160	0xbdbaea90	-0.091267705
161	0x3d00cb59	0.031443927
162	0xbdfe558d	-0.12418661
163	0xbd539a9e	-0.051661126
164	0xbd517d05	-0.05114462
165	0xbe8fa0b5	-0.28052297
166	0xbe050289	-0.12989248
167	0xbe2b695f	-0.16739415
168	0xbdd0f41f	-0.102028124
169	0xbd820d1a	-0.06350155
170	0xbe4cce22	-0.20000508
171	0x3e52b734	0.20577699
172	0xbce2bfa4	-0.027679272
173	0xba3e2228	-0.00072530145
174	0xbd80581b	-0.06266805
175	0xbd7430b2	-0.059616752
176	0xbd6f11a9	-0.05836645
177	0xbcfd8b19	-0.030950116
178	0xbe66b2d7	-0.2252916
179	0xbc4b7403	-0.012417796
180	0xbc84f77c	-0.016231291
181	0xbd6b532b	-0.057452362
182	0xbe12a05f	-0.14318989
183	0x3d0bde2c	0.034147426
184	0x3db3f8c9	0.087876864
185	0xbe4225ee	-0.18959782
186	0x3ceeec5a	0.029165436
187	0x3a9d635f	0.0012007764
188	0xbd8d1163	-0.06888082
189	0xbde08324	-0.10962513
190	0x3c823cdc	0.01589816
191	0xbe049438	-0.12947166
192	0xbb9bfc0b	-0.0047602705
193	0x3de447bb	0.11146494
194	0xbd3fadc5	-0.04679658
195	0xbd118075	-0.035522897
196	0x3d7190e1	0.058976058
197	0xbe04b87c	-0.12961
198	0xbe10d5c6	-0.14144048
199	0xbd4b8823	-0.049690377
200	0xbe248c22	-0.16069081
201	0xbdd14dbd	-0.102199055
202	0xbcc30d08	-0.023809925
203	0xbddc000d	-0.10742197
204	0xbd2c227c	-0.042025074
205	0xbd15ac4f	-0.03654128
206	0xbea5c849	-0.32379368
207	0xbe3de5f9	-0.18544759
208	0xbdb0ebcb	-0.08638724
209	0x3bcdcb04	0.006280305
210	0x3d219882	0.039452083
211	0xbe0558b1	-0.13022114
212	0xbe57115a	-0.21002713
213	0x3c28cb87	0.010302431
214	0xbd8aab61	-0.06770969
215	0xbdcdc07b	-0.10046478
216	0xbdd4aba2	-0.10384299
217	0x3d674ef8	0.056471795
218	0xbd927e81	-0.07153035
219	0xbd18c457	-0.03729662
220	0xbe1b5c44	-0.15171915
221	0xbb1b9cd3	-0.0023744598
222	0xbd497cd4	-0.04919131
223	0xbe27b9c1	-0.16379453
224	0xbdfd089d	-0.123551585
225	0xbd93bd04	-0.07213786
226	0xbcc964c2	-0.024584178
227	0xbe3dec61	-0.18547203
228	0xbdf8e32e	-0.12152706
229	0xbdcccd04	-0.10000041
230	0x3d6e4da3	0.05817951
231	0xbcaaad5f	-0.020834623
232	0xbd220f7a	-0.03956554
233	0xbcbf8c00	-0.023382187
234	0xbc3b3415	-0.011425992
235	0xbdbe2954	-0.092852265
236	0xbd60a632	-0.054845996
237	0xbe988053	-0.29785404
238	0xbdaa6da8	-0.083216965
239	0xbe2f1a19	-0.17099799
240	0xbc347776	-0.01101481
241	0xbe5dd61f	-0.21663712
242	0x3da49f12	0.08038153
243	0xbe1cd9a7	-0.15317403
244	0x3e0923ad	0.13392515
245	0xbd453f66	-0.048156165
246	0x3cacbf6c	0.02108737
247	0xbe90819e	-0.2822389
248	0x3cef21a6	0.02919085
249	0xbe3979f5	-0.18112929
250	0x3badda1f	0.005305543
251	0xbdeed439	-0.11661572
252	0xbd83489f	-0.06410336
253	0xbe175729	-0.14779343
254	0xbd711d1b	-0.058865648
255	0xbd890ca5	-0.06691865

l3.weight f4 [2, 256]
0	0x3f38d7f3	0.7220451
1	0xbee9519d	-0.45570078
2	0xbed6d3ec	-0.4195856
3	0x3c256708	0.010095365
4	0xbf0d7efa	-0.55271876
5	0x3f3feadd	0.7496775
6	0x3eec0c62	0.46103197
7	0xbe499faf	-0.1968982
8	0xbdd92450	-0.10602629
9	0x3f1d5fcc	0.614743
10	0x3eaacff6	0.33361787
11	0xbf2a0829	-0.664187
12	0xbd03620a	-0.03207592
13	0xbccfc9c1	-0.025364758
14	0x3eb61e0b	0.35569796
15	0xbf1688c1	-0.5880242
16	0xbe024569	-0.1272179
17	0xbe2169aa	-0.15762964
18	0x3ec5c771	0.38628724
19	0xbed47614	-0.41496336
20	0xbd5003ac	-0.05078475
21	0xbf03cf73	-0.5148842
22	0x3eb0e875	0.3455235
23	0xbee14469	-0.43997505
24	0xbe4cdebb	-0.2000684
25	0x3f166faf	0.58764166
26	0xbf12b9b5	-0.57314616
27	0xbf12f8a9	-0.57410675
28	0xbed25cdd	-0.41086474
29	0x3e92532c	0.2857908
30	0xbee431ad	-0.4456915
31	0x3f017523	0.5056936
32	0x3ec0a598	0.37626338
33	0xbf2e097e	-0.67983234
34	0xbe862600	-0.26200867
35	0xbf16c904	-0.58900476
36	0x3e4bd857	0.19906746
37	0x3ed76038	0.42065597
38	0x3ef0380e	0.46917766
39	0x3e913cc9	0.28366688
40	0x3bb8efaf	0.005643807
41	0xbec1ca5b	-0.37849697
42	0x3f33ffad	0.70312005
43	0x3e893a53	0.2680231
44	0x3f2ea00b	0.68212956
45	0xbf1845c5	-0.5948146
46	0xbe5f899b	-0.21829836
47	0xbf225325	-0.6340812
48	0xbeab63a7	-0.33474466
49	0xbf233227	-0.637484
50	0xbb90690b	-0.0044070533
51	0x3eae9364	0.34096825
52	0xbf1e1857	-0.6175589
53	0x3e74ccd4	0.2390626
54	0xbf111d70	-0.56685543
55	0xbec39b44	-0.38204396
56	0xbef8e5f0	-0.48612928
57	0x3ec38055	0.38183847
58	0x3f1d3aee	0.61418045
59	0xbe250739	-0.16116036
60	0xbf25dfbb	-0.6479451
61	0xbe9612a7	-0.29311106
62	0xbd5af9c5	-0.053460855
63	0xbf0ba7be	-0.5455283
64	0x3d8f16fb	0.06986805
65	0x3f0516e0	0.5198803
66	0x3f593115	0.8484052
67	0xbf15d0de	-0.5852183
68	0xbc97732d	-0.018487537
69	0xbf0decfa	-0.5543972
70	0xbf0d6035	-0.55224925
71	0x3d7a6448	0.061130792
72	0xbf060ccf	-0.52363294
73	0x3f0ee358	0.5581565
74	0x3dbc619d	0.09198306
75	0x3e4aad16	0.1979259
76	0xbe8bb1a3	-0.27283964
77	0x3df7905c	0.12088081
78	0xbed84a99	-0.42244413
79	0x3e57e43e	0.21083161
80	0x3ea01112	0.31263024
81	0xbe95796e	-0.29194206
82	0x3eb55a8b	0.3542064
83	0xbe0b764a	-0.13619342
84	0x3f30e5ad	0.6910046
85	0x3ee37fe4	0.4443351
86	0x3f35c3a1	0.7100163
87	0xbe8cddab	-0.2751287
88	0xbf1ffb72	-0.6249305
89	0x3f262d76	0.6491312
90	0xbf1ce392	-0.61284745
91	0x3e49e178	0.19714916
92	0x3f040ec9	0.5158506
93	0xbf54b5bd	-0.8308981
94	0x3ee86432	0.45388943
95	0xbed64b9c	-0.4185456
96	0x3daec4c5	0.085336246
97	0xbefb1010	-0.49035692
98	0xbf1d06dc	-0.6133859
99	0xbf1619df	-0.58633226
100	0xbdfe084c	-0.12403926
101	0xbf03bed8	-0.5146308
102	0xbdc56a13	-0.09639373
103	0x3ed81be7	0.42208788
104	0x3e391566	0.18074569
105	0x3f00ed3e	0.50362
106	0x3f07b875	0.53015834
107	0xbf053ba1	-0.5204411
108	0xbf157eb1	-0.5839644
109	0xbda8ded3	-0.08245625
110	0x3ebf72dc	0.37392318
111	0xbf035779	-0.5130535
112	0xbf056090	-0.5210047
113	0x3d8457df	0.064620726
114	0xbf1787b2	-0.5919143
115	0xbf3cb002	-0.73706067
116	0xbe9241a7	-0.28565714
117	0x3f156ef2	0.58372414
118	0xbe6f2953	-0.23355608
119	0x3edfda0e	0.4372105
120	0x3e296bc3	0.16545014
121	0x3f551f8e	0.83251274
122	0x3f239202	0.63894665
123	0xbed4b92e	-0.4154753
124	0xbf294005	-0.6611331
125	0xbf16002c	-0.5859401
126	0xbe0966ef	-0.13418172
127	0x3e493481	0.19648935
128	0x3f23ad5e	0.6393641
129	0x3f07944b	0.5296065
130	0xbea2f1a2	-0.31824976
131	0x3f3611b0	0.7112074
132	0x3f64d668	0.8938966
133	0xbd5b4d6b	-0.05354063
134	0x3ef4ec47	0.47836515
135	0x3ea663f5	0.32498136
136	0xbecf4df9	-0.40489176
137	0x3ea1b486	0.3158304
138	0x3ddfec47	0.10933738
139	0x3f0c8fb3	0.5490677
140	0xbef391fc	-0.47572315
141	0xbef070a0	-0.46960926
142	0x3f0b8c88	0.5451131
143	0xbdbd3ad9	-0.0923974
144	0x3ee25c7c	0.44211185
145	0x3f21cdfd	0.6320494
146	0x3df0570a	0.117353514
147	0x3d17fa0b	0.037103694
148	0xbec0d6b3	-0.37663803
149	0xbe50b0a2	-0.2037988
150	0x3e85241d	0.26004115
151	0x3e06b3ec	0.13154572
152	0x3f06e1e4	0.5268843
153	0xbf0b1ac8	-0.5433774
154	0x3e9fa55b	0.31180844
155	0xbf1878e9	-0.59559494
156	0xbee34a49	-0.44392613
157	0xbed939bc	-0.4242686
158	0x3f5845a9	0.8448129
159	0xbe4816ce	-0.1953995
160	0xbf72edc1	-0.94894034
161	0x3d183b3f	0.037165876
162	0xbed4417b	-0.41456208
163	0x3ea6889f	0.3252611
164	0x3ccbef66	0.024894428
165	0xbf796b9f	-0.9742984
166	0xbecab7fa	-0.39593488
167	0xbf0e2d87	-0.5553822
168	0x3f75cbf7	0.9601435
169	0xbeb82451	-0.35965207
170	0x3d6ccdaa	0.057813324
171	0x3f1ee40d	0.6206673
172	0x3e7dc12b	0.24780719
173	0xbf1b7b40	-0.6073494
174	0x3ec3175f	0.38103768
175	0x3edfe8f2	0.4373241
176	0x3e08876d	0.13332911
177	0x3f0a10e0	0.53932
178	0xbed4486d	-0.41461506
179	0x3eb386fd	0.35063925
180	0x3f22df0c	0.6362159
181	0x3f4892c5	0.7834895
182	0x3ef23304	0.47304547
183	0x3f5c3879	0.8602367
184	0xbeaf14dc	-0.34195602
185	0xbe84bd24	-0.25925553
186	0x3f1db822	0.6160909
187	0x3eb4fc84	0.35348904
188	0xbf2bf638	-0.67172575
189	0xbe9c2505	-0.30496994
190	0xbef3219d	-0.47486582
191	0xbee66c1c	-0.45004356
192	0x3f10466d	0.5635746
193	0x3ec089f5	0.37605253
194	0xbd3fa51d	-0.046788324
195	0xbf05eaf6	-0.52311647
196	0x3f1a5dba	0.60299265
197	0x3e60c318	0.21949422
198	0x3f2a699d	0.66567403
199	0x3f17dc84	0.59320855
200	0x3d8bcb24	0.068258554
201	0x3f4644cd	0.7744873
202	0xbe9503d8	-0.29104495
203	0xbe8ce5e9	-0.27519158
204	0x3c84d277	0.016213639
205	0x3f04ca20	0.5187092
206	0xbf52f769	-0.8240877
207	0xbef7bbce	-0.4838547
208	0x3ecfc5cb	0.40580592
209	0x3e9fecb5	0.3123528
210	0x3ead0794	0.33794844
211	0x3e24c04f	0.16088985
212	0xbe44e215	-0.19226868
213	0xbdd181cd	-0.10229836
214	0x3ee26edc	0.44225204
215	0x3eaa48f0	0.33258772
216	0x3ef41d41	0.4767857
217	0x3f352e31	0.7077361
218	0x3d57e030	0.052704036
219	0xbe4e2b27	-0.20133649
220	0xbf02feb1	-0.5116988
221	0x3e1038fa	0.14084235
222	0xbe270a09	-0.16312422
223	0xbf313be7	-0.6923203
224	0xbf2ebf91	-0.6826106
225	0x3f2e7c4c	0.6815841
226	0x3f252402	0.6450807
227	0x3efa5905	0.48896042
228	0x3e644b27	0.22294293
229	0xbeb77830	-0.35833883
230	0xbf1c1ada	-0.6097847
231	0x3f4b6bf5	0.79461604
232	0x3e38320c	0.17987841
233	0x3e9c0c65	0.30478206
234	0x3f46601b	0.77490395
235	0xbf0306d9	-0.51182324
236	0xbb1b2720	-0.0023674443
237	0xbf62bc67	-0.8856873
238	0x3f600579	0.8750835
239	0x3e88bbbb	0.26705727
240	0x3c6a9e1a	0.014319921
241	0xbeaaafe0	-0.33337307
242	0x3f0666c1	0.5250054
243	0x3d2d7bf2	0.04235453
244	0x3f2fe346	0.68706167
245	0xbdef492a	-0.11683877
246	0xbf0771e3	-0.5290815
247	0xbef7a957	-0.48371384
248	0xbf48b8c9	-0.7840696
249	0x3f0a93b9	0.54131657
250	0xbf05ccaf	-0.5226545
251	0x3c1b5193	0.009479898
252	0x3e634bcb	0.22196881
253	0x3d4b9d4d	0.04971056
254	0xbe93eebb	-0.28893074
255	0xbed7f7a3	-0.4218112

l3.bias f4 [2]
0	0x3c990161	0.018677415
1	0xbd105c14	-0.035244063
