src/drl_agent/temp/pytorch_models/td7_agent_seed_40_20250619_actor.pth (torch, 820075 bytes, 8 tensors)

l0.weight f4 [256, 24]
0	0xbdcd5112	-0.100252286
1	0x3e02f5a6	0.1278902
2	0xbe1029f0	-0.14078498
3	0x3d2bf591	0.041982237
4	0x3e75ffa9	0.24023308
5	0x3dc283f2	0.09497823
6	0x3d265463	0.04060782
7	0xbe7906cb	-0.24318998
8	0xbe5e399c	-0.21701664
9	0xbe9eb476	-0.30997056
10	0x3e218acc	0.15775603
11	0x3d25f839	0.040519927
12	0x3e9418a0	0.28925037
13	0x3ea6d963	0.32587728
14	0x3e15b9a3	0.14621596
15	0x3d68521a	0.056718923
16	0x3e49eb03	0.19718556
17	0xbe1ad41a	-0.15119973
18	0x3d6d2c52	0.057903595
19	0xbe0b2072	-0.13586596
20	0xbe676648	-0.22597611
21	0xbe912674	-0.2834965
22	0x3d9450a1	0.07241941
23	0x3e5d6407	0.21620189
24	0x3c125d62	0.008933397
25	0xbe29e2dc	-0.16590446
26	0xbd0d41f1	-0.034486715
27	0xbeaeff8b	-0.3417934
28	0xbe6eb4bb	-0.2331113
29	0x3ea9e337	0.33181164
30	0x3e438a2a	0.19095674
31	0x3e83fc92	0.25778633
32	0xbe49721f	-0.1967244
33	0xbb898f7f	-0.0041980143
34	0xbe1701ab	-0.1474673
35	0xbe734a4e	-0.23758814
36	0x3e98987c	0.29803836
37	0x3dfab310	0.12241185
38	0x3e516b97	0.20451199
39	0xbbc53c90	-0.0060191825
40	0x3c5f7f73	0.013641226
41	0xbdbb0ff0	-0.09133899
42	0x3e606892	0.2191489
43	0x3dcab099	0.098969646
44	0xbce68cdf	-0.028143344
45	0xbeec3e83	-0.46141443
46	0xbec3b48d	-0.38223687
47	0x3e991c68	0.29904485
48	0xbd267083	-0.040634643
49	0xbd8b81bf	-0.068118565
50	0xbe1f3f7f	-0.15551566
51	0x3db6a085	0.089173354
52	0xbd89626c	-0.067082256
53	0xbdeb1d8b	-0.11480244
54	0x3e562481	0.20912363
55	0x3d2b7505	0.041859645
56	0x3dc49f51	0.096007
57	0xbd1874e3	-0.037220847
58	0xbe92967b	-0.28630432
59	0xbd28ba5e	-0.04119336
60	0xbe3a2411	-0.1817782
61	0x3e98b353	0.29824314
62	0x3eea7933	0.45795593
63	0x3ed453eb	0.41470274
64	0x3e3bc9db	0.1833872
65	0xbe4f073e	-0.20217606
66	0x3e30b900	0.17258072
67	0x3e101762	0.1407142
68	0xbb35b1f5	-0.002772448
69	0x3c15a2c3	0.009133044
70	0xbe997ee5	-0.29979625
71	0xbbcb3ae3	-0.006202088
72	0xbd138ce5	-0.03602304
73	0x3defbb95	0.117057
74	0x3e8488ac	0.25885522
75	0xbe5da269	-0.21643986
76	0xbe9188f4	-0.284248
77	0xbe2f6182	-0.1712704
78	0xbc98d7ee	-0.01865765
79	0x3e088663	0.13332514
80	0xbe05d373	-0.13068943
81	0xbe9423dc	-0.2893361
82	0xbdfa0e9c	-0.12209818
83	0xbc27d39c	-0.010243323
84	0xbe46646a	-0.19374242
85	0x3cf31337	0.029672248
86	0x3dfc8db6	0.12331717
87	0xbd8848ca	-0.066545084
88	0x3e5d951c	0.21638912
89	0xbe908820	-0.28228855
90	0xbda8786e	-0.08226095
91	0x3d9ba3bd	0.0759959
92	0x3dad2901	0.084550865
93	0xbed7b9b9	-0.42133883
94	0xbe19ae11	-0.15007807
95	0xbdca8c9f	-0.098901026
96	0x3d65164e	0.055929475
97	0xbda4a3d8	-0.08039063
98	0x3e5cf956	0.21579489
99	0xbd5c7e5c	-0.053831443
100	0xbd86d83e	-0.06584214
101	0x3d9318c7	0.0718246
102	0x3e9d978b	0.3077968
103	0xbe0e4db6	-0.13896832
104	0xbe723179	-0.23651685
105	0xbe9ccbc3	-0.30624208
106	0xbbb8d5a7	-0.0056407037
107	0xbdc6dbf9	-0.09709925
108	0x3e3e4a33	0.18582992
109	0x3d194bad	0.037425686
110	0x3ea23b89	0.31686047
111	0x3e88cfe7	0.26721117
112	0xbe9ddafb	-0.3083113
113	0xbea65911	-0.32489827
114	0xbe5950a6	-0.21222171
115	0x3e3f9080	0.18707466
116	0xbd8dfb07	-0.06932645
117	0x3e910904	0.2832719
118	0x3e3b2f54	0.18279773
119	0xbdca202e	-0.09869419
120	0x3dfe2d00	0.12410927
121	0x3e1aa3d8	0.15101564
122	0x3c0f14eb	0.008733015
123	0xbe7cf462	-0.247026
124	0xbe92510e	-0.28577465
125	0xbe2b551d	-0.16731687
126	0x3e4e3fd7	0.2014154
127	0xbe79d559	-0.24397792
128	0xbe3a358a	-0.18184486
129	0x3d1ce1ab	0.03830115
130	0x3e165417	0.14680515
131	0x3d5eadc3	0.05436493
132	0x3e2d9c67	0.16954194
133	0xbe919892	-0.28436714
134	0xbd69ccc5	-0.05708005
135	0xbc5bb151	-0.013408975
136	0x3e1bcd98	0.15215147
137	0xbd93c5ed	-0.07215486
138	0xbde27130	-0.11056745
139	0x3dfdf962	0.124010816
140	0x3e27d4fc	0.16389841
141	0x3eabe505	0.33573166
142	0xbe0cb8f0	-0.13742423
143	0xbe22c896	-0.1589683
144	0x3d30396c	0.04302351
145	0xbe465fdd	-0.19372506
146	0xbe280acb	-0.16410367
147	0x3e7bf708	0.24605954
148	0xbde2011e	-0.11035369
149	0x3d5dd220	0.05415547
150	0xbe0f5333	-0.13996582
151	0xbc9c0f8c	-0.019050382
152	0x3e22e014	0.15905792
153	0xbeee06e3	-0.4648963
154	0xbee2b404	-0.44277966
155	0x3c0bd3f6	0.008534422
156	0xbe4411f1	-0.19147469
157	0x3e9ea4c7	0.3098509
158	0x3e578f93	0.21050863
159	0xbe9d29c1	-0.30695918
160	0xbe4ff780	-0.20309258
161	0x3de346a3	0.11097457
162	0x3e363ab7	0.17795835
163	0xbe0b4464	-0.13600308
164	0x3c183fe1	0.009292574
165	0xbe9a1fc6	-0.30102366
166	0x3e2344e8	0.15944254
167	0x3dc3515b	0.09537002
168	0x3e250cfe	0.16118237
169	0xbdaeeaf5	-0.08540908
170	0x3d504301	0.05084515
171	0xbe0c02cb	-0.1367294
172	0xbe4d5f43	-0.2005587
173	0xbe1414ab	-0.14461009
174	0x3cad53d5	0.021158138
175	0xbd160306	-0.036623977
176	0xbe44b748	-0.19210541
177	0x3bbcc0eb	0.0057603023
178	0x3e9a5ff3	0.30151328
179	0x3e002628	0.12514555
180	0x3c61a40e	0.013772024
181	0x3e52db2d	0.20591421
182	0xbe6768bc	-0.22598547
183	0xbe1f4ac5	-0.15555866
184	0xbe1ec730	-0.15505672
185	0xbd01949b	-0.03163586
186	0x3e6daa89	0.23209585
187	0xbe4248b9	-0.18973054
188	0xbe592680	-0.21206093
189	0x3ed8d907	0.4235308
190	0x3dbf8b5e	0.09352754
191	0xbd5f9dd3	-0.054593872
192	0xbc725412	-0.014790552
193	0xbc4e05fe	-0.012574671
194	0x3e15ff9e	0.14648291
195	0x3da73c1e	0.08165763
196	0xbea8b1e2	-0.32948214
197	0xbeeb32d3	-0.45937213
198	0xbe744ad7	-0.23856674
199	0x3eef94f6	0.46793336
200	0x3f2a8b51	0.6661883
201	0x3e7ed4c4	0.24885851
202	0xbd8d7f6a	-0.06909068
203	0xbe7c3e43	-0.24633126
204	0xbe8ee2a9	-0.27907303
205	0xbe024750	-0.12722516
206	0x3e64b9ef	0.22336553
207	0x3e5b15aa	0.21394983
208	0xbe6f3f9d	-0.2336411
209	0xbe34edef	-0.1766889
210	0xbdc22719	-0.094801135
211	0x3def2426	0.11676817
212	0xbda94cee	-0.08266626
213	0x3cc58475	0.024111012
214	0x3e145684	0.14486128
215	0x3e4bf146	0.19916257
216	0xbe5edb78	-0.21763408
217	0x3d8d1da7	0.06890421
218	0x3e7836cb	0.24239652
219	0x3d7c9cb0	0.061672866
220	0x3de2bba2	0.11070944
221	0x3eae7ff3	0.34081993
222	0x3ab88e71	0.0014080537
223	0xbe089fc2	-0.13342193
224	0xbea51c80	-0.32248306
225	0xbea41ba4	-0.32052338
226	0x3d2b29a7	0.04178777
227	0x3d9540a1	0.072877176
228	0xbd37f5c5	-0.04491212
229	0xbe83616c	-0.25660264
230	0xbe05be81	-0.13060953
231	0xbda6c9c6	-0.08143954
232	0x3e938699	0.28813627
233	0xbe0e8246	-0.13916883
234	0x3d466ceb	0.048443716
235	0x3dba7b11	0.09105504
236	0xbe3c96e9	-0.18416943
237	0x3c682175	0.014168133
238	0xbe833bda	-0.256316
239	0x3dd48db6	0.10378592
240	0x3db05fc2	0.08612014
241	0xbd504f7c	-0.050857052
242	0xbdab5cd9	-0.08367319
243	0xbd031cc6	-0.032009862
244	0xbe4ec5f5	-0.20192702
245	0x3df3fab7	0.119130544
246	0xbe61a6b3	-0.22036247
247	0xbd8d511a	-0.069002345
248	0x3c28090b	0.010256062
249	0xbe78b98d	-0.24289532
250	0x3bd223d0	0.0064129606
251	0x3e9769e2	0.2957297
252	0x3eadc1c9	0.3393691
253	0x3df4f315	0.11960427
254	0x3e911f20	0.2834406
255	0x3db23c78	0.0870294

l0.bias f4 [256]
0	0x3dfe5948	0.12419373
1	0xbeb20cd7	-0.3477542
2	0xbf0acb6b	-0.5421664
3	0x3f4ac087	0.79200023
4	0x3f34cd38	0.7062564
5	0xbf033673	-0.5125496
6	0x3f2684ee	0.65046585
7	0x3ee8f5cd	0.4550003
8	0x3f051a2e	0.5199307
9	0x3f07af94	0.53002286
10	0x3f22a665	0.6353515
11	0x3e6d786f	0.23190473
12	0xbe0c8473	-0.137224
13	0x3f290179	0.6601787
14	0xbeb0cfd0	-0.34533548
15	0x3e1a0538	0.15041053
16	0x3edbce70	0.42930937
17	0x3f46c18d	0.77639085
18	0x3f272c7a	0.6530224
19	0xbe577cf1	-0.21043755
20	0xbedac632	-0.42729336
21	0xbee5c5c8	-0.44877458
22	0x3e1bb5d5	0.15206082
23	0xbc1d9b88	-0.009619601
24	0x3e0e456f	0.13893674
25	0xbeed8dff	-0.46397397
26	0x3d37772a	0.044791378
27	0xbf415ef1	-0.75535494
28	0x3ed3eee7	0.41393206
29	0x3d717939	0.058953498
30	0x3f1094d4	0.56477094
31	0xbecf1c0d	-0.4045109
32	0x3eccdbea	0.4001153
33	0xbeec2c46	-0.46127528
34	0x3e1434b2	0.14473227
35	0x3e0007f8	0.1250304
36	0xbec54679	-0.3853033
37	0x3f68bb6c	0.90910983
38	0x3df945f1	0.121715434
39	0xbeab0178	-0.33399558
40	0x3e34817f	0.17627524
41	0xbf1587f4	-0.58410573
42	0x3eb315b0	0.34977484
43	0xbe8d64c8	-0.27615952
44	0x3ee402c2	0.44533354
45	0x3f22e81f	0.6363544
46	0x3f54ae4f	0.83078474
47	0xbca0e7de	-0.019641813
48	0xbe38bdb0	-0.1804111
49	0x3f64161d	0.8909624
50	0x3ea2989b	0.31757054
51	0x3e696cc4	0.22795397
52	0x3f16caaa	0.5890299
53	0xbf260942	-0.64857876
54	0xbeb76886	-0.35821933
55	0xbd899436	-0.06717722
56	0x3ba551e6	0.0050451634
57	0xbdf77071	-0.12081993
58	0xbe23152f	-0.1592605
59	0xbdb3d41f	-0.08780693
60	0x3f1b4159	0.6064659
61	0xbc2a9f3a	-0.010413939
62	0x3f0ae219	0.5425125
63	0x3def6529	0.11689217
64	0x3ef35ae3	0.4753028
65	0xbf28c94e	-0.65932167
66	0xbe81972e	-0.25310653
67	0xbdcb7991	-0.09935296
68	0x3d62d23f	0.055376288
69	0x3eeb0d2e	0.45908493
70	0x3e461fb0	0.19348025
71	0x3ef0a914	0.47003996
72	0x3eacb11e	0.3372888
73	0xbe153530	-0.1457107
74	0x3d4052bc	0.0469539
75	0x3f0ac970	0.5421362
76	0xbe1f6d3d	-0.15569015
77	0xbeca1577	-0.394695
78	0x3ee44547	0.44584104
79	0xbe374eb3	-0.17901115
80	0xbef8b900	-0.48578644
81	0x3ef1dd44	0.47239125
82	0x3ce8f2a0	0.028436005
83	0xbe627109	-0.22113432
84	0x3f013067	0.5046448
85	0xbeb165a6	-0.34647864
86	0xbd390e13	-0.045179438
87	0x3ea0ea10	0.31428576
88	0x3bbfcd5b	0.0058533377
89	0x3ec95cc6	0.39328593
90	0x3ecf5bdd	0.40499774
91	0x3e9b5bc0	0.30343437
92	0x3df74cbc	0.12075183
93	0x3ebcd390	0.3688016
94	0x3e9d5388	0.30727792
95	0x3eee5ed1	0.46556714
96	0xbf3726ae	-0.71543396
97	0x3e6f269d	0.23354574
98	0xbdefe823	-0.117141984
99	0x3d8bcac3	0.06825783
100	0xbeea79fb	-0.4579619
101	0xbf17f36b	-0.593558
102	0xbf68aaf1	-0.90885836
103	0xbe18177d	-0.1485271
104	0x3f0a34e1	0.53986937
105	0x3e63d45a	0.22248974
106	0xbe367469	-0.17817844
107	0x3ed79d26	0.42112082
108	0x3d266c63	0.04063071
109	0xbed5b332	-0.41738278
110	0xbd28e62d	-0.041235138
111	0xbe14982a	-0.14511171
112	0x3e4bdcd5	0.1990846
113	0x3e626f3d	0.22112747
114	0xbe914d2e	-0.28379196
115	0x3f006ed1	0.5016909
116	0x3ee2f10c	0.4432453
117	0xbe45a0a6	-0.19299564
118	0xbe9e9314	-0.30971587
119	0xbe906c9a	-0.28207856
120	0x3ea0c86c	0.3140291
121	0x3ec3730c	0.3817371
122	0x3f549bf8	0.8305049
123	0xbea4a956	-0.32160443
124	0x3eceda2f	0.40400836
125	0xbeab2de7	-0.33433458
126	0x3e4818d0	0.19540715
127	0x3f0727a1	0.52794844
128	0xbe94dbf0	-0.2907405
129	0xbf30a944	-0.6900828
130	0x3ea251aa	0.3170293
131	0x3f17ca8a	0.59293425
132	0x3f25e083	0.647957
133	0x3ecf8edc	0.4053868
134	0x3e1e96ee	0.15487263
135	0x3ebd83b9	0.3701456
136	0x3eb95a14	0.36201537
137	0xbef68d07	-0.4815447
138	0x3f531767	0.82457584
139	0xbe9ec9a9	-0.3101323
140	0xbe957217	-0.29188606
141	0x3eb0aab3	0.34505233
142	0x3e6f5495	0.23372109
143	0x3eec91ab	0.46204886
144	0x3ef26b09	0.47347286
145	0x3f141618	0.5784621
146	0xbd92c5e1	-0.07166649
147	0xbec97ce8	-0.39353108
148	0xbea2c727	-0.31792566
149	0x3f4107a8	0.7540231
150	0xbf317c1d	-0.69330007
151	0x3f0d1262	0.55106175
152	0xbf29c28d	-0.66312486
153	0xbcac0a74	-0.021001078
154	0x3eb79299	0.35854033
155	0xbf49dce3	-0.7885267
156	0x3de49bfa	0.11162563
157	0xbf0c8a52	-0.5489856
158	0x3dc5b5af	0.09653794
159	0x3e6ff0e7	0.2343174
160	0x3ed560b7	0.4167535
161	0x3d2d1c54	0.042263344
162	0x3ece29e8	0.40266347
163	0xbe9fa99d	-0.31184092
164	0x3f02482b	0.5089137
165	0xbed80eed	-0.42198887
166	0xbebad24b	-0.36488566
167	0xbeab25d9	-0.33427313
168	0x3e8fcfd1	0.2808824
169	0xbeb2fc93	-0.34958324
170	0xbf2fd241	-0.68680197
171	0xbe550fda	-0.20806828
172	0xbf3b629d	-0.73197347
173	0x3ef00df3	0.46885642
174	0xbf3b2a55	-0.7311147
175	0x3da2a6a4	0.079419404
176	0xbf257709	-0.6463476
177	0xbf20e9a3	-0.628565
178	0x3eae6564	0.3406173
179	0x3cf7a9c9	0.030232327
180	0x3dde5919	0.10856838
181	0x3ef5906f	0.47961757
182	0xbf769737	-0.96324486
183	0x3f346f5c	0.7048242
184	0xbf00ea36	-0.5035738
185	0xbf41c82a	-0.7569605
186	0x3f1acc6a	0.6046816
187	0xbefdfccf	-0.4960694
188	0x3c2e08f9	0.010622256
189	0x3cd867ec	0.026416741
190	0xbe89f810	-0.2694707
191	0xbf119b96	-0.5687803
192	0x3f06fc81	0.5272904
193	0xbe19f586	-0.15035066
194	0x3e990c78	0.29892325
195	0xbebc19b0	-0.36738348
196	0xbf24d726	-0.6439079
197	0xbe03f121	-0.12884952
198	0x3eb77480	0.3583107
199	0x3f3b1891	0.7308436
200	0x3e7bc5a8	0.24587119
201	0xbe98cbab	-0.29842886
202	0x3f43831c	0.7637193
203	0xbf4cec82	-0.8004838
204	0xbe6ade73	-0.2293642
205	0xbe53af73	-0.20672397
206	0xbf2c1909	-0.672257
207	0x3ea91f50	0.33031702
208	0x3edf62c1	0.4363003
209	0xbd394de0	-0.045240283
210	0xbe895860	-0.26825237
211	0x3ea3f80b	0.3202518
212	0xbe9904a8	-0.29886365
213	0xbe910885	-0.28326812
214	0xbf5de731	-0.86680895
215	0xbf01f5a7	-0.5076546
216	0xbe949c17	-0.29025337
217	0x3e62d872	0.2215288
218	0xbeb4bedf	-0.35301873
219	0xbf0e6bb0	-0.5563307
220	0xbf016172	-0.50539315
221	0x3f1ccce2	0.61250126
222	0x3f1f4109	0.6220861
223	0x3f40b552	0.7527667
224	0x3e6867b2	0.22695807
225	0x3de7b1fc	0.11313245
226	0x3e28e83f	0.16494845
227	0x3ee783e3	0.4521781
228	0xbe720fcc	-0.23638839
229	0xbf138b5e	-0.5763453
230	0x3eea90d1	0.4581361
231	0x3eaefc53	0.34176883
232	0x3e52ee85	0.205988
233	0x3f18e5b7	0.5972552
234	0xbf1eb04a	-0.61987746
235	0xbef7c669	-0.48393562
236	0xbe8dd169	-0.2769883
237	0xbed250af	-0.41077182
238	0xbc22be31	-0.0099330405
239	0x3d4a313d	0.049363364
240	0x3d8bf45f	0.068337195
241	0xbe094429	-0.13404907
242	0xbc2bdb8e	-0.010489358
243	0xbeadc8d5	-0.33942285
244	0x3e780549	0.24220766
245	0x3e522aba	0.20524111
246	0x3d6461bf	0.05575728
247	0x3eea155f	0.4571943
248	0x3f46e352	0.77690613
249	0x3f3490e0	0.7053356
250	0x3ec1e0ba	0.37866765
251	0x3d0aee71	0.0339188
252	0x3e5bf9d8	0.21482027
253	0xbf51cd96	-0.81954324
254	0x3d7085de	0.058721416
255	0x3ed62b8e	0.41830105

l1.weight f4 [256, 512]
0	0x3e02088b	0.12698571
1	0x3dbb0081	0.091309555
2	0x3cd321af	0.025772898
3	0x3cd688e0	0.026188314
4	0x3d593f9d	0.053039182
5	0xbe2bdfa6	-0.16784534
6	0x3c207594	0.009793658
7	0x3c27290e	0.010202659
8	0x3e4d1863	0.20028834
9	0x3e6e7ae3	0.23289065
10	0x3d54d93a	0.051964976
11	0xbeac7b6c	-0.33687913
12	0x3d6008b6	0.054695807
13	0xbd31486b	-0.043281954
14	0xbde813e1	-0.113319166
15	0x3e1e05ad	0.15431853
16	0xbd9d1e2e	-0.07671772
17	0x3ddfae04	0.10921863
18	0x3d497f46	0.049193643
19	0xbdbc64eb	-0.09198936
20	0xbda79ea2	-0.08184554
21	0xbde938e1	-0.11387802
22	0xbdce8d35	-0.10085527
23	0xbe40d966	-0.18832931
24	0x3dffc360	0.12488437
25	0xbd4e4d85	-0.050366897
26	0x3d9ecfd3	0.07754483
27	0x3d250cd0	0.040295422
28	0xbe8034f0	-0.25040388
29	0xbe590e37	-0.21196829
30	0x3b38bd63	0.0028189055
31	0xbd11644b	-0.035496037
32	0xbb9c138f	-0.0047630738
33	0x39dcb6cc	0.00042097864
34	0x3e17f3b2	0.14839056
35	0x3d1ad118	0.037797064
36	0xbd974937	-0.073870115
37	0x3e6056db	0.21908133
38	0x3d1e167b	0.038595658
39	0x3d6010d3	0.054703545
40	0xbda61a19	-0.081104465
41	0xbd822a0b	-0.06355675
42	0x3d38b091	0.04509026
43	0xbc95f069	-0.018303113
44	0x3dd671e2	0.1047094
45	0xbe0ead17	-0.13933216
46	0xbc9d8c0d	-0.01923182
47	0x3e5b6ea6	0.21428928
48	0xbdb2ff61	-0.08740116
49	0x3e5ce4f7	0.21571718
50	0x3e223585	0.15840729
51	0xbe10bbe0	-0.14134169
52	0xbbf91e9b	-0.0076025254
53	0xbd8f2427	-0.069893174
54	0xbce900d6	-0.028442781
55	0x3d01a3b1	0.03165025
56	0xbd9fb3db	-0.077979766
57	0x3dd9e424	0.106392175
58	0x3e8f3e58	0.27977252
59	0x3e45b7a6	0.19308338
60	0x3dc07522	0.09397341
61	0x3da4b63d	0.08042572
62	0x3eac642c	0.33670175
63	0x3e6145ad	0.21999235
64	0x3dafe29b	0.085881434
65	0x3e3b7c79	0.18309201
66	0xbdd3c698	-0.10340613
67	0xbc512353	-0.01276477
68	0x3d4d6361	0.050143603
69	0xbe0c3bcb	-0.13694684
70	0xbdb0ed26	-0.086389825
71	0x3d9cd85e	0.07658456
72	0x3dc3d175	0.09561435
73	0x3e2aa980	0.16666222
74	0xbd7d2ec2	-0.06181217
75	0x3d58ea6b	0.052957933
76	0xbc99cb07	-0.018773569
77	0xbc99df53	-0.018783247
78	0xbb8c726f	-0.0042861025
79	0xbd99c3c6	-0.07508044
80	0x3d7284db	0.059208732
81	0x3da87571	0.08225525
82	0xbd578763	-0.05261935
83	0x3d26bda0	0.040708184
84	0xbcfde272	-0.030991767
85	0xbe31cf4f	-0.17364238
86	0xbc4701d4	-0.012146432
87	0xbdd76b80	-0.10518551
88	0xbdb48d2c	-0.08815989
89	0xbcf7908b	-0.03022029
90	0xbc7dd759	-0.015493237
91	0x3da94b9a	0.08266373
92	0xbd858b4e	-0.06520711
93	0x3d686af9	0.056742642
94	0x3dffc66c	0.12489018
95	0x3e4e2c6c	0.20134133
96	0x3bc940b8	0.0061417483
97	0x3e0d2ca5	0.13786562
98	0xbe3f8ac4	-0.18705279
99	0x3d29b86f	0.041435655
100	0xbe20956d	-0.15682001
101	0x3b05cc2f	0.0020415892
102	0xbd961ad2	-0.07329334
103	0x3b437ad2	0.0029827845
104	0xbdde7066	-0.10861282
105	0x3da036f7	0.07822984
106	0xbe8bf1e5	-0.27332988
107	0xbdfe5d80	-0.124201775
108	0x3d7515c6	0.059835218
109	0x3c9535c4	0.018214114
110	0x3d620d9a	0.055188753
111	0x3dded6a0	0.1088078
112	0x3dd99fb8	0.10626167
113	0xbd012974	-0.031533673
114	0xbe96ff04	-0.29491436
115	0x3dc94381	0.098273285
116	0x3e8003a2	0.25002772
117	0xbd9e59f7	-0.07732003
118	0xbd36c3ad	-0.044620205
119	0xbd34b29a	-0.04411564
120	0xbdb20beb	-0.086936794
121	0x3da08c97	0.078393154
122	0x3d7bc749	0.06146935
123	0xbdcb3e80	-0.0992403
124	0x3e136e05	0.14397438
125	0x3d9a8de7	0.07546597
126	0xbd2743cc	-0.04083614
127	0xbd879803	-0.06620791
128	0xbc8a4ef9	-0.01688336
129	0x3ce4dde3	0.027937835
130	0xbd3904d1	-0.04517061
131	0xbde65caa	-0.11248143
132	0x3d1cfea5	0.038328785
133	0x3c226852	0.009912567
134	0xbcda64c9	-0.026659386
135	0xbd9bea37	-0.07613032
136	0x3d9334f1	0.07187832
137	0x3c53343b	0.012890871
138	0x3e0be8a4	0.13662964
139	0xbd3218d7	-0.04348072
140	0x3e882c24	0.26596177
141	0x3c74af4e	0.014934374
142	0x3e367512	0.17818096
143	0xb92c735f	-0.00016446177
144	0xbe59810a	-0.21240631
145	0x3d3c2023	0.045929085
146	0x3e14a891	0.14517428
147	0x3e1be38b	0.1522352
148	0x3dfc0a17	0.12306612
149	0xbdce9388	-0.10086733
150	0xbde25a38	-0.11052364
151	0x3e333978	0.17502391
152	0xbdf03661	-0.11729122
153	0x3de16477	0.1100549
154	0xbea090e0	-0.3136053
155	0xbd06fbd5	-0.03295501
156	0x3d86e5e2	0.065868154
157	0xbdec4c5d	-0.11538003
158	0xbd6f8668	-0.05847779
159	0xbe30a507	-0.17250453
160	0x3e98eca6	0.29868048
161	0xbe07f7eb	-0.13278167
162	0x3dd375c3	0.10325196
163	0xbe757293	-0.23969488
164	0xbe6690a4	-0.22516114
165	0xbdf8d70b	-0.12150391
166	0xbe4402f7	-0.19141756
167	0x3d8eceb4	0.06973019
168	0x3e81d215	0.25355592
169	0x3d24219a	0.040071107
170	0xbe844dfa	-0.2584074
171	0xbd2b87de	-0.04187762
172	0xbd9a6768	-0.075392544
173	0xbd89dcd3	-0.06731572
174	0xbdb9be86	-0.090695426
175	0x3e6b6cdc	0.22990745
176	0xbd80e8e3	-0.062944196
177	0xbe35eeec	-0.17766923
178	0x3e57f8ae	0.21090958
179	0xbd433bab	-0.047664326
180	0xbc7e4abf	-0.015520751
181	0x3e1d6d8e	0.15373823
182	0xbe1ffca0	-0.15623713
183	0x3dbb0f14	0.09133735
184	0x3e203e71	0.1564882
185	0xbe6ef0e2	-0.23334077
186	0x3d233a3d	0.039850462
187	0xbdd4862c	-0.10377154
188	0xbd5c6959	-0.053811405
189	0xbd2e9d2d	-0.042630363
190	0x3db09c96	0.086236164
191	0xbdcb6659	-0.09931631
192	0x3dc2de4d	0.09515057
193	0xbdc29911	-0.09501851
194	0xbda98ff5	-0.08279411
195	0x3c6370b8	0.013881855
196	0x3e0c1f8a	0.13683906
197	0x3d39bcbf	0.045346018
198	0x3e591c0e	0.21202108
199	0x3e118793	0.14211874
200	0x3e1c4642	0.15261176
201	0xbe0499c9	-0.1294929
202	0xbd2f8707	-0.04285338
203	0x3c37ca97	0.011217735
204	0xbddb2a5c	-0.10701439
205	0xbd411c0b	-0.047145884
206	0xbdd5ff0b	-0.10449036
207	0xbe598484	-0.21241957
208	0xbd84aec8	-0.064786494
209	0x3e31836a	0.17335287
210	0x3c17a84c	0.009256434
211	0x3dd2d934	0.102953345
212	0xbdae7585	-0.08518509
213	0x3e1fcca8	0.15605414
214	0xbe20f108	-0.15716946
215	0x3c81c4a8	0.015840843
216	0x3e347308	0.17622006
217	0xbdf0e6e5	-0.1176279
218	0x3d29d546	0.04146316
219	0xbd2372cc	-0.0399044
220	0xbe319c88	-0.17344868
221	0x3df2cd77	0.118555956
222	0x3de0dfdf	0.109802
223	0x3ddd1fe6	0.107971
224	0xbd8a0e89	-0.067410536
225	0x3dd20bd0	0.10256159
226	0xbc06a64e	-0.008218361
227	0x3e150511	0.14552714
228	0xbdb183a2	-0.08667685
229	0xbe6ee75e	-0.23330447
230	0xbdac77a1	-0.08421255
231	0x3d9fbb4b	0.07799395
232	0xbda7193d	-0.08159111
233	0x3d1b09f6	0.037851296
234	0xbe994168	-0.29932714
235	0xbe18233c	-0.14857191
236	0xbb7fb715	-0.0039019038
237	0x3e7baf14	0.24578506
238	0x3d6b0f81	0.057387833
239	0x3deaa7b4	0.11457768
240	0xbd8dc4df	-0.06922316
241	0xbcf02671	-0.029315205
242	0xbdf6b687	-0.12046533
243	0xbe24f1e7	-0.16107903
244	0xbe68db5d	-0.2273993
245	0xbd04792b	-0.032342117
246	0x3e1f5da0	0.15563059
247	0x3e4d665e	0.20058581
248	0x3ddf3f35	0.10900728
249	0x3d2f78f1	0.042839948
250	0xbdd4238a	-0.10358341
251	0xbdea4639	-0.11439175
252	0x3e2a8ea2	0.16655973
253	0xbe0251e4	-0.12726551
254	0xbe1d71e4	-0.15375477
255	0xbe7284cd	-0.23683472

l1.bias f4 [256]
0	0xbcfc1442	-0.030771378
1	0xbd8ad26b	-0.06778415
2	0xbe1155be	-0.14192864
3	0xbd52fd4d	-0.051511098
4	0xbd6460b8	-0.0557563
5	0xbd5bcbe9	-0.05366126
6	0xbd54a9bf	-0.051919695
7	0xbdb1a808	-0.086746275
8	0xbc601fc9	-0.013679453
9	0xbabf8c8d	-0.0014614031
10	0xbd6a9a28	-0.05727592
11	0xbd8aa8ef	-0.06770503
12	0xbe1967e4	-0.14981037
13	0xbde987d9	-0.11402864
14	0xbe3a6df6	-0.1820601
15	0x3c304936	0.010759642
16	0xbd42905c	-0.047500953
17	0xbcea370f	-0.028590707
18	0xbd57d40c	-0.052692458
19	0xbdbdd8bb	-0.09269854
20	0xbd76343d	-0.060108412
21	0xbd881104	-0.066438705
22	0x3dce5c9b	0.10076257
23	0xbd961c3b	-0.07329603
24	0xbc0567f3	-0.008142459
25	0xbdfa45aa	-0.122203186
26	0xbe00d521	-0.12581302
27	0xbd34c305	-0.044131298
28	0xbe573014	-0.21014434
29	0xbd858467	-0.06519394
30	0xbddaf92e	-0.106920585
31	0xbd85330e	-0.065038785
32	0xbc8915de	-0.01673406
33	0xbd286164	-0.041108504
34	0xbdef3e8c	-0.11681852
35	0xbd45773e	-0.04820942
36	0xbd34f340	-0.044177294
37	0xbd976557	-0.07392376
38	0xbd85e052	-0.06536926
39	0xbd6211a7	-0.055192616
40	0xbdd55488	-0.10416514
41	0xbdb71c19	-0.08940906
42	0xbe326b04	-0.17423636
43	0xbde9f42f	-0.114235274
44	0xbd69f93c	-0.057122454
45	0xbd1e61d2	-0.038667507
46	0xbdb146fc	-0.08656117
47	0xbdc5d718	-0.096601665
48	0xbde1e83c	-0.11030623
49	0xbcbfd66b	-0.023417672
50	0xbd8222ae	-0.06354271
51	0xbde83244	-0.113377124
52	0xbdf6628f	-0.12030517
53	0x3d2beb5c	0.041972503
54	0xbd712f30	-0.058882892
55	0xbd977353	-0.07395043
56	0xbd9d6e51	-0.07687057
57	0xbd9d222a	-0.07672532
58	0x3c7a0242	0.015259327
59	0xbd92dc5a	-0.07170935
60	0xbdc980cb	-0.098390184
61	0xbdebe384	-0.115180045
62	0xbd996f25	-0.07491902
63	0xbd72fe94	-0.059324816
64	0xbdc3d8d4	-0.09562841
65	0x3d8b6074	0.06805506
66	0xbe04e928	-0.12979567
67	0xbd0bd100	-0.034134865
68	0x3d031782	0.03200484
69	0x3cbc2aba	0.022969592
70	0xbe2a1622	-0.16610005
71	0xbdbfcd70	-0.09365356
72	0xbe21de59	-0.15807475
73	0xbd49a35e	-0.049228065
74	0xbd5fab5d	-0.054606784
75	0xbe31e356	-0.17371878
76	0xbdc0e6a1	-0.09418989
77	0x3d227284	0.03965999
78	0xbd952f87	-0.07284456
79	0x3ce4c82f	0.027927486
80	0xbdceb837	-0.1009373
81	0xbd65fc3f	-0.056148764
82	0xbbda65eb	-0.0066649816
83	0x3d1771d1	0.03697378
84	0xbd3bb094	-0.045822695
85	0xbd9cb69c	-0.076520175
86	0xbdda20c6	-0.10650782
87	0xbd0e5eda	-0.034758426
88	0xbd92fc94	-0.07177082
89	0xbd8aea10	-0.06782925
90	0x3820b0f4	3.8311773e-05
91	0xbd9809db	-0.07423755
92	0xbb191262	-0.0023356904
93	0xbb0725ec	-0.0020621968
94	0x3c706688	0.014672883
95	0xbe0e6f79	-0.13909711
96	0xbdb419bb	-0.0879397
97	0xbcc2d1e5	-0.023781726
98	0xbd2ec5b4	-0.042669013
99	0xbd6a3aa3	-0.057184827
100	0xbd38fb00	-0.045161247
101	0xbd3e9c4c	-0.046535775
102	0xbe49dc9b	-0.1971306
103	0xbe211e8a	-0.15734306
104	0xbd07c09f	-0.033142682
105	0xbddb3417	-0.10703295
106	0x3d02194e	0.031762414
107	0xbb12935c	-0.0022365665
108	0xbb8f1c0b	-0.0043673567
109	0xbe479e8c	-0.19494075
110	0x3bef9d8a	0.0073124813
111	0xbc315e73	-0.010825741
112	0xbd9650d5	-0.07339636
113	0x3c4e22d9	0.0125815505
114	0xbd8c2e93	-0.06844821
115	0xbd27bda9	-0.04095236
116	0xbe4647d2	-0.19363335
117	0xbd9cd260	-0.07657313
118	0x3c7bc18e	0.015365971
119	0xbdb6aa44	-0.08919194
120	0xbd913d4a	-0.07091768
121	0xbe430191	-0.19043566
122	0xbc5dcd74	-0.013537753
123	0xbe09053e	-0.13380906
124	0xbdbe6e5f	-0.09298395
125	0xbd1d673e	-0.038428538
126	0xbd7c9a2a	-0.06167046
127	0xbe271950	-0.1631825
128	0xbcda132c	-0.02662047
129	0xbe0c8eb9	-0.1372632
130	0x3c946df3	0.018118834
131	0x3d2d80df	0.04235923
132	0x3caee4c0	0.02134931
133	0xbe0172fd	-0.12641521
134	0xbd65a528	-0.05606571
135	0xbddb7d06	-0.10717206
136	0xbd89e497	-0.06733053
137	0x3ca50bb2	0.020147178
138	0xbdd4a971	-0.10383881
139	0xbbd64a8b	-0.006539648
140	0xbd468d96	-0.04847487
141	0xbd7798cf	-0.060448464
142	0xbe04fcef	-0.12987112
143	0xbe25817b	-0.16162674
144	0xbe1e643f	-0.15467928
145	0xbd88e74e	-0.06684743
146	0xbda38571	-0.07984436
147	0xbd8eedd5	-0.069789566
148	0xbdc482d9	-0.0959527
149	0xbe12ebc0	-0.14347744
150	0xbd9977a3	-0.07493522
151	0xbc29ca22	-0.010363134
152	0xbd570360	-0.052493453
153	0xbd88fa97	-0.06688421
154	0xbc1fe97d	-0.009760258
155	0xbd4d1ee6	-0.050078295
156	0xbe349649	-0.17635454
157	0xbcecc5c1	-0.02890289
158	0xbd075355	-0.033038456
159	0xbd6d0996	-0.05787047
160	0xbe236af8	-0.15958774
161	0x3cb6ab8c	0.022298597
162	0x3c867d91	0.016417297
163	0xbd8bcf49	-0.06826646
164	0xbd6d950d	-0.058003474
165	0xbd8b87d1	-0.06813014
166	0xbd1ee170	-0.038789213
167	0xbd25dd6c	-0.040494367
168	0xbd856cae	-0.0651487
169	0xbd70147a	-0.058613278
170	0xbe09eb86	-0.13468751
171	0xbd3d876c	-0.046271726
172	0x3cb4b2a7	0.022057844
173	0xbe08d677	-0.13363062
174	0xbc54e20c	-0.012993347
175	0xbd727679	-0.059195016
176	0xbdbd34bb	-0.09238573
177	0xbdd707c8	-0.10499531
178	0xbdd3f050	-0.1034857
179	0xbd703ce2	-0.058651812
180	0xbd91278e	-0.070876226
181	0xbdb24826	-0.087051675
182	0xbd7f18f4	-0.062279657
183	0xbe0ce0da	-0.13757649
184	0xbdf7bc54	-0.120964676
185	0xbd051420	-0.032489896
186	0xbdc28846	-0.09498648
187	0xbbd4bd07	-0.0064922604
188	0xbcb1801f	-0.021667538
189	0xbdb712c7	-0.08939128
190	0x3d3021fd	0.043001164
191	0xbde9d00f	-0.11416637
192	0xbdc2663e	-0.094921574
193	0xbdbc0ed4	-0.09182516
194	0xbcb14fe4	-0.02164454
195	0xbd9f1fe3	-0.07769754
196	0xbd961344	-0.073278934
197	0xbd798241	-0.060915235
198	0xbd9ae37d	-0.07562921
199	0xbc5a740b	-0.013333331
200	0xbe2c2193	-0.16809683
201	0x3c84abe8	0.016195253
202	0xbd03c8d0	-0.03217393
203	0x3d17affa	0.03703306
204	0xbe02b8bc	-0.12765783
205	0xbd0a5062	-0.033768065
206	0xbe020cac	-0.12700146
207	0x3d91db4f	0.07121908
208	0xbd829367	-0.06375771
209	0xbc979fef	-0.01850888
210	0x3d8dce96	0.06924169
211	0xbe095439	-0.13411035
212	0x3d3953aa	0.045245804
213	0xba1610a6	-0.00057245267
214	0x3cc85ee6	0.024459314
215	0xbdae5c7f	-0.08513736
216	0xbda0ace7	-0.078454785
217	0xbd261fc2	-0.04055763
218	0xbe86c97a	-0.2632559
219	0xbd0d21db	-0.034456115
220	0xbbcd225c	-0.0062601995
221	0xbd83df66	-0.06439094
222	0xbdd6be11	-0.10485471
223	0xbd5fc009	-0.0546265
224	0xbd5d62d8	-0.054049343
225	0xbd419ade	-0.047266833
226	0xbdc097e8	-0.09403974
227	0xbc714345	-0.014725511
228	0xbe4f112c	-0.20221394
229	0x3c8cf107	0.017204775
230	0xbcebacc2	-0.0287689
231	0xbca2377f	-0.019801853
232	0xbd8c6250	-0.06854689
233	0x3d35fa88	0.04442838
234	0xbdc2f3c4	-0.09519151
235	0xbd5bbea7	-0.053648617
236	0xbd45e3a5	-0.048312802
237	0xbe10ca01	-0.14139558
238	0x3d144976	0.03620287
239	0xbe2bf1f1	-0.16791512
240	0xbde4ad7c	-0.11165902
241	0xbd553ef3	-0.052061986
242	0xbd2c79cf	-0.042108353
243	0xbd90aa68	-0.070637524
244	0x3be30ea9	0.006929238
245	0xbd3606c5	-0.04444005
246	0xbdc4110a	-0.095735624
247	0xbe109a6a	-0.14121404
248	0xbd8f8143	-0.070070766
249	0xbe0f11d2	-0.13971642
250	0xbd3620e5	-0.044464964
251	0xbd2fb2e5	-0.042895216
252	0xbca1a648	-0.01973261
253	0x3cddb602	0.027064327
254	0xbc5bfe46	-0.013427323
255	0xbc49d35d	-0.012318459

l2.weight f4 [256, 256]
0	0x3b866c16	0.0041022403
1	0x3dd7976a	0.10526927
2	0x3de7f84c	0.11326656
3	0x3d13941e	0.036029927
4	0xbcbadb7f	-0.022809742
5	0x3db101bc	0.08642909
6	0xbd862e43	-0.065517925
7	0xbe2e245d	-0.17006059
8	0xbe111759	-0.14169063
9	0x3c6fec1e	0.014643697
10	0xbeefb5a8	-0.4681828
11	0x3d82168c	0.06351957
12	0x3b56b66a	0.0032762536
13	0xbd047b21	-0.032343987
14	0x3da05f4f	0.07830679
15	0xbdf1deef	-0.11810099
16	0xbe89340c	-0.2679752
17	0xbdf3f2b7	-0.119115286
18	0xbdf3be14	-0.11901489
19	0xbe023f8e	-0.12719557
20	0x3d87d01a	0.06631489
21	0xbe22f893	-0.15915136
22	0xbc7f3590	-0.015576735
23	0x3d80ddeb	0.062923275
24	0xbe208846	-0.15676984
25	0x3d96f080	0.073700905
26	0xbe0cf595	-0.13765557
27	0x3e3a1294	0.1817115
28	0xbbfa1499	-0.00763185
29	0xbd85630f	-0.065130346
30	0xbe96e637	-0.29472515
31	0xbe0ab526	-0.13545665
32	0xbe4d8b78	-0.20072734
33	0xbe7704a0	-0.24122858
34	0x3d990f40	0.07473612
35	0xbd5259eb	-0.051355284
36	0xbe08dca7	-0.13365422
37	0xbd51402b	-0.051086586
38	0xbe96b6d5	-0.29436365
39	0xbd8b5d4b	-0.068049036
40	0x3d65ccef	0.056103643
41	0x3da08ddd	0.07839558
42	0x3dac6b85	0.08418945
43	0xbda73609	-0.08164603
44	0xbdf83c7c	-0.121209115
45	0xbe995776	-0.2994954
46	0xbdd6c805	-0.104873694
47	0xbc974144	-0.018463738
48	0x3d54bb0a	0.051936187
49	0xbf0cc549	-0.54988533
50	0xbd7d2439	-0.061802123
51	0xbde5b0a5	-0.11215333
52	0xbda81fab	-0.08209165
53	0x3d2a06ea	0.0415105
54	0xbe19a044	-0.15002543
55	0x3d97d26f	0.07413184
56	0x3dd2b128	0.10287696
57	0x3e227311	0.15864207
58	0xbd755e42	-0.059904344
59	0x3e883be3	0.2660819
60	0x3c2304ab	0.009949843
61	0xbded314f	-0.115816705
62	0xbec496b4	-0.38396227
63	0x3e2e9062	0.17047265
64	0xbecd008a	-0.40039474
65	0xbd80725f	-0.062718146
66	0xbd8d4b07	-0.06899076
67	0xbda10a68	-0.07863313
68	0x3e9a4802	0.30133063
69	0x3e8748d8	0.26422763
70	0x3e7ad3e2	0.2449489
71	0xbd8f0347	-0.06983047
72	0x3edf3ba5	0.43600193
73	0xbdde26fe	-0.10847281
74	0xbed3193d	-0.41230193
75	0x3e2bb4b6	0.16768155
76	0xbe81821d	-0.2529458
77	0xbe9a5315	-0.30141512
78	0x3d6f0322	0.058352597
79	0xbe7fac18	-0.24967992
80	0xbd68ebc2	-0.05686546
81	0xbe8344c4	-0.25638402
82	0x3cd408f1	0.02588317
83	0xbef756c4	-0.48308384
84	0x3e06c63e	0.13161561
85	0x3c4cda35	0.0125031965
86	0x3beddca9	0.0072589708
87	0xbea062c6	-0.31325358
88	0x3dc83344	0.09775403
89	0x3e3ff2fd	0.18745036
90	0x3e0b1b94	0.13584739
91	0x3cfd5d2c	0.030928217
92	0x3ef0ab5a	0.4700573
93	0x3e8de2b1	0.27712014
94	0xbddf6919	-0.10908718
95	0x3c7c2422	0.015389474
96	0xbf089b52	-0.53362
97	0xbe077a16	-0.13230166
98	0xbe736334	-0.23768312
99	0xbe0554e9	-0.13020672
100	0xbce90f83	-0.02844978
101	0x3dd2e673	0.10297861
102	0x3e205427	0.15657102
103	0xbd32e254	-0.043672875
104	0xbe78c37b	-0.2429332
105	0x3e87309c	0.26404274
106	0xbe9b6685	-0.30351654
107	0xbca6d92b	-0.020367226
108	0xbd493316	-0.049120985
109	0xbe374718	-0.17898214
110	0xbe67fb63	-0.2265449
111	0xbdfc5cee	-0.123224124
112	0x3ed18e66	0.40928954
113	0xbe455f2f	-0.19274591
114	0xbe6a9cf0	-0.2291143
115	0x3d69aea1	0.057051305
116	0xbdc8ee84	-0.09811118
117	0xbe780d18	-0.24223745
118	0xbd00edd7	-0.03147682
119	0x3ec46bf3	0.3836361
120	0x3e85c112	0.26123863
121	0xbdcfd3b7	-0.10147803
122	0x3e42de79	0.19030179
123	0x3e97b431	0.29629663
124	0x3ce9e969	0.028553681
125	0xbe5ca56a	-0.21547475
126	0x3e12dceb	0.14342086
127	0xbdf34ddc	-0.11880085
128	0xbec0d925	-0.37665668
129	0xbd4d7abf	-0.050165888
130	0xbe6b5ebd	-0.22985359
131	0xbe409637	-0.18807302
132	0xbbbafd79	-0.005706486
133	0x3dcfbb37	0.1014313
134	0xbd126bca	-0.035747327
135	0xbee3b636	-0.44474953
136	0x3e082d4f	0.13298534
137	0x3e013ae9	0.12620129
138	0x3d79199e	0.060815446
139	0xbe28031c	-0.16407436
140	0xbe48d933	-0.19614105
141	0xbe38f18f	-0.18060897
142	0x3daf602e	0.08563267
143	0xbd59840b	-0.05310444
144	0xbd8c7531	-0.0685829
145	0xbf548a67	-0.83023685
146	0x3de5e00e	0.11224376
147	0xbe259aa3	-0.1617227
148	0xbe149cda	-0.14512959
149	0x3e543bc8	0.2072593
150	0xbdc5843a	-0.09644361
151	0x3e3546b3	0.17702751
152	0x3e56b635	0.20967944
153	0xbd8df680	-0.06931782
154	0xbc1cb655	-0.009564956
155	0x3cbc2f47	0.022971762
156	0x3dd8da6f	0.10588538
157	0x3ccbc238	0.024872884
158	0x3e73c0ac	0.23803967
159	0x3e708fd9	0.23492374
160	0xbe841761	-0.25799087
161	0xbe34bbdf	-0.17649792
162	0xbe61f1d6	-0.2206491
163	0x3dcc85c2	0.0998645
164	0x3e0f9f97	0.14025722
165	0xbe3e2189	-0.1856748
166	0xbc6eb7b1	-0.014570163
167	0xbdd1ee32	-0.1025051
168	0x3e4a382e	0.19747993
169	0xbe22ab2f	-0.15885614
170	0x3ed52339	0.41628435
171	0xbee478d9	-0.4462345
172	0xbf24d5cb	-0.6438872
173	0xbd62d46e	-0.05537837
174	0xbb72f1e4	-0.0037070448
175	0x3dd9264e	0.10603009
176	0xbdf5878b	-0.119887434
177	0xbf017fd4	-0.50585675
178	0xbdb5dc7c	-0.08879945
179	0xbdcb2663	-0.09919431
180	0xbebdb8cb	-0.37055048
181	0x3e568672	0.20949724
182	0xbca8f187	-0.020622982
183	0x3d36bc44	0.044613138
184	0xbe927af9	-0.28609446
185	0xbdebf0c5	-0.115205325
186	0x3d6645c4	0.056218877
187	0xbe337304	-0.17524344
188	0xbdd755fd	-0.10514448
189	0xbd6035d0	-0.05473882
190	0x3e0ee92f	0.1395614
191	0x3e23f7bd	0.16012473
192	0x3e6619bb	0.22470753
193	0xbe819c4d	-0.2531456
194	0xbf181ad6	-0.5941595
195	0xbeb5db5a	-0.35518914
196	0xbd615dec	-0.05502121
197	0xbe0c1150	-0.13678479
198	0x3d137847	0.036003377
199	0x3ea6398f	0.3246579
200	0x3d8a32c2	0.067479625
201	0xbe770ee0	-0.24126768
202	0xbe7b28af	-0.24527238
203	0xbda13431	-0.07871283
204	0xbe09d517	-0.13460194
205	0xbe06af4b	-0.13152806
206	0xbe2405b9	-0.16017808
207	0xbe45fb41	-0.19334127
208	0xbe3a24e6	-0.18178138
209	0x3dbcac33	0.09212532
210	0xbdf3d534	-0.119059
211	0x3d45ba15	0.048273165
212	0x3e993be4	0.29928505
213	0x3e04a728	0.1295439
214	0x3f034223	0.5127279
215	0x3e0a2c79	0.13493527
216	0xbdd1e61b	-0.10248967
217	0xbe722384	-0.2364636
218	0x3c3a01d4	0.011352975
219	0xbdbbd1ad	-0.09170852
220	0xbd8ff8b4	-0.07029858
221	0x3d505b75	0.05086847
222	0x3cbfdfdb	0.023422172
223	0xbe07c300	-0.1325798
224	0xbe203bb0	-0.15647769
225	0xbdaa6e66	-0.08321838
226	0x3dfb2cf0	0.122644305
227	0xbec958f8	-0.3932569
228	0xbd7bca74	-0.06147237
229	0xbee7443a	-0.4516924
230	0x3de71004	0.112823516
231	0x3d971b7c	0.07378289
232	0xbe1b7a3b	-0.15183346
233	0x3d012518	0.031529516
234	0xbceccb0b	-0.028905412
235	0xbe77d71e	-0.24203154
236	0xbd0f0758	-0.034919113
237	0xbeb4cc4b	-0.35312113
238	0xbe32d935	-0.1746567
239	0xbcccb3a8	-0.02498801
240	0x3ebdc403	0.37063608
241	0x3d093e86	0.033506893
242	0xbdde9478	-0.10868162
243	0x3d87f47a	0.06638427
244	0xbe6a1e9f	-0.22863244
245	0xbd62ac63	-0.055340182
246	0x3d82b2f7	0.06381791
247	0xbe8e2325	-0.27761188
248	0xbe5816cf	-0.21102451
249	0xbda3eb77	-0.08003896
250	0xbd518fb5	-0.05116244
251	0xbd922e8c	-0.07137784
252	0xbe7894f4	-0.24275571
253	0xbedb567e	-0.42839426
254	0xbe5f3169	-0.21796192
255	0x3db37acc	0.08763656

l2.bias f4 [256]
0	0xbde6f497	-0.112771206
1	0xbe1bf2c6	-0.1522933
2	0xbde017b4	-0.10942021
3	0xbe4edf50	-0.20202374
4	0xbe10bd30	-0.1413467
5	0x3b6dfd23	0.0036314211
6	0xbdb00628	-0.08594924
7	0xbd0cedfe	-0.034406655
8	0xbe4a8161	-0.19775917
9	0x3d9585b5	0.07300893
10	0x3e1f06c4	0.15529925
11	0xbdbe6e20	-0.092983484
12	0xbdd428c5	-0.10359339
13	0x3d114170	0.035462797
14	0xbe6903aa	-0.22755304
15	0xbd5ff790	-0.054679453
16	0xbe046a19	-0.12931098
17	0xbd937d71	-0.072016604
18	0xbbc65002	-0.006052018
19	0xbcaf1526	-0.021372389
20	0xbd8ddabd	-0.06926487
21	0xbdbf9ad5	-0.09355704
22	0x3cd33972	0.025784228
23	0xbce973b0	-0.028497547
24	0xbe1f1e7f	-0.15538977
25	0xbe2496b9	-0.16073121
26	0xbe24ab56	-0.16080984
27	0xbe0d6409	-0.13807692
28	0xbc8b5afd	-0.01701116
29	0xbc8d9129	-0.017281132
30	0xbdaeff22	-0.085447565
31	0xbdebd13b	-0.11514517
32	0xbd9c5a6f	-0.07634436
33	0xbd513847	-0.05107906
34	0xbd7c5769	-0.0616068
35	0xbe663ad8	-0.22483385
36	0x3d221280	0.039568424
37	0x3d1893f8	0.03725049
38	0xbe18bef7	-0.14916597
39	0xbd1ea522	-0.0387317
40	0xbe3f0501	-0.18654253
41	0x3ca8ab6b	0.020589551
42	0xbd781de6	-0.06057539
43	0xbdd849fa	-0.10560985
44	0xbdcaa93a	-0.09895559
45	0xbe57be73	-0.21068744
46	0xbe34fa86	-0.17673692
47	0xbcb677d2	-0.022273932
48	0xbda3b309	-0.079931326
49	0xbdc8586d	-0.09782491
50	0xbe14e5fc	-0.14540857
51	0xbdb8a722	-0.09016253
52	0xbdff48b5	-0.1246504
53	0xbbad95bd	-0.005297391
54	0xbd5ab747	-0.053397443
55	0x3c026167	0.007957793
56	0xbcec3161	-0.02883214
57	0xbd46b613	-0.048513483
58	0xbc3a3ca4	-0.011366997
59	0xbe2aa3c6	-0.16664037
60	0xbe12e6c0	-0.14345837
61	0xbd83dba0	-0.064383745
62	0x3cf518f3	0.029919123
63	0xbdb7a8bc	-0.089677304
64	0xbcd0409b	-0.025421431
65	0x3cfcced7	0.030860348
66	0xbe33f15f	-0.17572545
67	0xbe54fb5f	-0.20799015
68	0xbdbf36e7	-0.09336644
69	0x3c5d2329	0.013497152
70	0xbd5153b2	-0.05110521
71	0xbc0457f6	-0.008077612
72	0xbd983111	-0.07431234
73	0xbd3c0363	-0.045901667
74	0xbcfc90aa	-0.0308307
75	0xbcf8b015	-0.0303574
76	0xbd39d14c	-0.045365617
77	0xbcd6106b	-0.026130876
78	0xbda38194	-0.079836994
79	0xbdc30f1f	-0.095243685
80	0xbdc56f26	-0.096403405
81	0xbe3bb593	-0.18330984
82	0xbdd7b2c7	-0.10532146
83	0xbe0732a6	-0.13202915
84	0x3e406541	0.18788625
85	0xbe0cbc4a	-0.13743702
86	0xbcead2fd	-0.02866506
87	0xbe7a5062	-0.24444726
88	0xbdd5007a	-0.104004815
89	0xbd9680d0	-0.07348788
90	0x3d2cef3d	0.042220343
91	0x3d8d6bc5	0.06905321
92	0xbe31d47f	-0.17366217
93	0xbe493aa5	-0.19651277
94	0xbe1e6d98	-0.15471494
95	0xbdfeced3	-0.12441792
96	0xbe69b83c	-0.22824186
97	0xbdba0e25	-0.09084729
98	0xbdb25095	-0.08706776
99	0xbd793266	-0.06083908
100	0x3d5a5f5b	0.053313594
101	0xbdf9879a	-0.12184067
102	0xbe0228d5	-0.12710889
103	0xbdb3fcef	-0.08788478
104	0x3dac35b5	0.08408681
105	0xbdb4244e	-0.08795987
106	0x3d1158dc	0.035485134
107	0xbe1768ab	-0.14786021
108	0xbc0347e2	-0.008012744
109	0xbd8b6898	-0.06807059
110	0xbd8f745c	-0.07004616
111	0xbd6dfb42	-0.058100946
112	0xbdae2dc2	-0.08504821
113	0x3dcdedf0	0.100551486
114	0x3d6007a8	0.0546948
115	0xbe845da4	-0.25852692
116	0xbdd934a9	-0.10605747
117	0x3d087fd2	0.033325024
118	0xbe0c1513	-0.13679914
119	0xbcd194ea	-0.025583703
120	0x3d5c5748	0.053794175
121	0xbe0c78f5	-0.13718016
122	0xbe17f3d0	-0.14839101
123	0xbe3cb642	-0.18428901
124	0xbe8ea7e9	-0.2786248
125	0xbe7a9243	-0.24469857
126	0x3cd07d12	0.025450263
127	0xbe2224dd	-0.15834375
128	0x3dc2a594	0.09504238
129	0x3defb62a	0.11704667
130	0xbd9b4a01	-0.075824745
131	0xbd729c0b	-0.059230845
132	0xbc558413	-0.013031977
133	0xbce3d92a	-0.027813513
134	0x3c251133	0.010074901
135	0x3db60c20	0.088890314
136	0xbcfbf167	-0.030754758
137	0xbd9c174f	-0.07621633
138	0x3dba039d	0.090827204
139	0xbda869cb	-0.082233034
140	0xbe2b3588	-0.1671964
141	0x3b4abb28	0.0030934308
142	0xbd0c855e	-0.034306876
143	0xbde07748	-0.10960251
144	0x3dcc00ea	0.09961112
145	0xbd4e76c0	-0.050406218
146	0xbe193470	-0.1496141
147	0xbdafb1c9	-0.08578832
148	0xbbf57fd7	-0.0074920463
149	0xbe667f47	-0.2250949
150	0xbd84d07c	-0.06485078
151	0xbd8b0350	-0.06787741
152	0xbc6754c7	-0.014119334
153	0x3c00ac61	0.007853598
154	0xbd9b7a8c	-0.07591733
155	0xbc198f1d	-0.0093725
156	0xbdc3ca2f	-0.09560048
157	0xbd7385bf	-0.059453722
158	0xbce30a80	-0.027714968
159	0xbd68082c	-0.05664842
160	0xbdba25c6	-0.09089236
161	0x3cf8df7f	0.030380009
162	0xbdfe4285	-0.12415031
163	0xbd55113e	-0.052018397
164	0xbd517d05	-0.05114462
165	0xbe904772	-0.28179508
166	0xbe04e600	-0.12978363
167	0xbe2c0642	-0.16799262
168	0xbdd2063a	-0.10255094
169	0xbd84dc76	-0.06487362
170	0xbe4d02d6	-0.20020613
171	0x3e519898	0.20468366
172	0xbce0a5e8	-0.02742286
173	0xb9879113	-0.00025857295
174	0xbd7c5315	-0.06160267
175	0xbd73ea05	-0.05954935
176	0xbd6870f8	-0.05674836
177	0xbd01eb08	-0.031718284
178	0xbe668fe6	-0.2251583
179	0xbc42d51b	-0.011891629
180	0xbc7fe0c5	-0.015617554
181	0xbd6c151e	-0.057637326
182	0xbe12910d	-0.14313145
183	0x3d0be8a7	0.03415742
184	0x3db6747e	0.08908938
185	0xbe4196ad	-0.18905134
186	0x3cefbaa6	0.029263806
187	0x3a863ba0	0.0010241158
188	0xbd8aee42	-0.06783725
189	0xbddfd073	-0.109284304
190	0x3c8138dd	0.015774185
191	0xbe03e780	-0.12881279
192	0xbb97079c	-0.0046090614
193	0x3de46056	0.11151187
194	0xbd3d280e	-0.046180777
195	0xbd0f2aed	-0.034953047
196	0x3d6ec900	0.058297157
197	0xbe03dcfd	-0.12877269
198	0xbe118282	-0.14209941
199	0xbd447425	-0.047962327
200	0xbe241357	-0.16023003
201	0xbdd1bf4e	-0.102415666
202	0xbcc35a8d	-0.023846889
203	0xbddc111b	-0.1074545
204	0xbd2d12f1	-0.042254392
205	0xbd17a53b	-0.03702281
206	0xbea5918a	-0.323376
207	0xbe3dea03	-0.185463
208	0xbdaf4937	-0.085588865
209	0x3bd4fbca	0.006499742
210	0x3d26804a	0.04064969
211	0xbe05794d	-0.13034554
212	0xbe56c79c	-0.20974582
213	0x3c27f51b	0.010251309
214	0xbd8b63a6	-0.06806116
215	0xbdcdb553	-0.100443505
216	0xbdd482ba	-0.103764966
217	0x3d661606	0.056173347
218	0xbd902907	-0.07039075
219	0xbd1ac93a	-0.03778956
220	0xbe1b75f4	-0.15181714
221	0xbb0051d8	-0.0019580033
222	0xbd4c88cc	-0.049935147
223	0xbe274e48	-0.16338456
224	0xbdfcc7e6	-0.12342815
225	0xbd916d08	-0.07100874
226	0xbccf9b0a	-0.025342483
227	0xbe3dc196	-0.18530878
228	0xbdfa7562	-0.1222942
229	0xbdcb42aa	-0.099248245
230	0x3d73b435	0.05949803
231	0xbca5bf00	-0.020232677
232	0xbd1fdc33	-0.039028358
233	0xbcc4323b	-0.023949733
234	0xbc39f5ae	-0.0113500785
235	0xbdbc2fe7	-0.09188824
236	0xbd60a632	-0.054845996
237	0xbe99f12e	-0.30066818
238	0xbda9d52f	-0.08292615
239	0xbe2ecd28	-0.17070448
240	0xbc1f7109	-0.0097315395
241	0xbe5d89f8	-0.21634662
242	0x3da4fa54	0.08055559
243	0xbe1efa81	-0.15525247
244	0x3e099bf8	0.13438404
245	0xbd453f66	-0.048156165
246	0x3cace5df	0.021105705
247	0xbe90e1fc	-0.28297412
248	0x3cf95ab7	0.030438764
249	0xbe384c08	-0.17997754
250	0x3b938ecb	0.004503106
251	0xbdedcf10	-0.1161176
252	0xbd826606	-0.06367116
253	0xbe17572c	-0.14779347
254	0xbd6ebfe8	-0.058288485
255	0xbd8818ff	-0.066453926

l3.weight f4 [2, 256]
0	0x3f38e5c3	0.7222559
1	0xbeea8553	-0.45804843
2	0xbed73e29	-0.42039612
3	0x3c1dcad5	0.009630878
4	0xbf0d9ac5	-0.55314285
5	0x3f3ff9ca	0.7499052
6	0x3eec1709	0.46111324
7	0xbe47afd2	-0.19500664
8	0xbdd6d2be	-0.10489415
9	0x3f1d10b4	0.6135361
10	0x3eaab404	0.33340466
11	0xbf2a11a0	-0.66433144
12	0xbd059033	-0.032608222
13	0xbccf1675	-0.025279263
14	0x3eb5f759	0.35540274
15	0xbf15ce87	-0.5851826
16	0xbe02a474	-0.12758046
17	0xbe2133ed	-0.15742464
18	0x3ec5be58	0.38621783
19	0xbed4d960	-0.41572094
20	0xbd49b284	-0.04924251
21	0xbf03e8a8	-0.5152688
22	0x3eb0d771	0.3453937
23	0xbee1b3bb	-0.44082436
24	0xbe4d3130	-0.20038295
25	0x3f168c0e	0.58807456
26	0xbf125a6b	-0.57169217
27	0xbf12f7b7	-0.5740923
28	0xbed267a9	-0.4109471
29	0x3e92561c	0.2858132
30	0xbee25079	-0.4420202
31	0x3f015f21	0.5053578
32	0x3ec0aa39	0.3762987
33	0xbf2dd1be	-0.67898166
34	0xbe85f943	-0.26166734
35	0xbf16bdc9	-0.5888334
36	0x3e4dc2c1	0.20093824
37	0x3ed75d65	0.42063442
38	0x3eefbbf6	0.4682309
39	0x3e9138e2	0.2836371
40	0x3bc9d1ff	0.0061590667
41	0xbec1eed7	-0.37877533
42	0x3f340d09	0.7033239
43	0x3e8927ee	0.26788276
44	0x3f2e6245	0.681187
45	0xbf18320e	-0.5945138
46	0xbe5f9264	-0.21833187
47	0xbf2251d0	-0.63406086
48	0xbeabee53	-0.33580264
49	0xbf2377e4	-0.63854814
50	0xbb804033	-0.003913903
51	0x3eaf21ce	0.34205478
52	0xbf1dbb64	-0.6161406
53	0x3e755705	0.23958977
54	0xbf11417e	-0.5674056
55	0xbec396c4	-0.38200963
56	0xbef8ab19	-0.48568037
57	0x3ec3571b	0.38152394
58	0x3f1d5e10	0.61471653
59	0xbe250739	-0.16116036
60	0xbf25e80e	-0.6480721
61	0xbe962561	-0.29325393
62	0xbd5e00ba	-0.05419991
63	0xbf0bd140	-0.54616165
64	0x3d900430	0.07032049
65	0x3f049472	0.5178901
66	0x3f5959a0	0.8490238
67	0xbf15c3de	-0.58501995
68	0xbc97732d	-0.018487537
69	0xbf0df96a	-0.554587
70	0xbf0d8e95	-0.5529569
71	0x3d7cd107	0.06172278
72	0xbf05e067	-0.52295536
73	0x3f0ed9e8	0.5580125
74	0x3dbc20b6	0.091859266
75	0x3e4ae4fb	0.19813912
76	0xbe8bae48	-0.27281404
77	0x3df78c46	0.12087302
78	0xbed88588	-0.42289376
79	0x3e58013e	0.21094224
80	0x3e9fe409	0.31228665
81	0xbe958d50	-0.29209375
82	0x3eb5579c	0.35418403
83	0xbe0b5b22	-0.13608983
84	0x3f30bdcc	0.6903961
85	0x3ee3d61f	0.444993
86	0x3f35727e	0.70877826
87	0xbe8c23dd	-0.27371112
88	0xbf2011fe	-0.62527454
89	0x3f262d6f	0.64913076
90	0xbf1ced5a	-0.6129967
91	0x3e4cafab	0.19988887
92	0x3f03c87f	0.5147781
93	0xbf54b59f	-0.8308963
94	0x3ee912a5	0.45522037
95	0xbed64b9c	-0.4185456
96	0x3dad4828	0.08461028
97	0xbefb91a1	-0.49134544
98	0xbf1cf79c	-0.6131532
99	0xbf15d52d	-0.58528405
100	0xbdfddbdf	-0.12395453
101	0xbf039448	-0.51398134
102	0xbdc41c34	-0.09575692
103	0x3ed821b4	0.42213213
104	0x3e384e82	0.17998698
105	0x3f0147a5	0.50499946
106	0x3f07a54b	0.5298659
107	0xbf05414b	-0.52052754
108	0xbf154ca6	-0.5832008
109	0xbda94ae1	-0.08266235
110	0x3ebf60e3	0.37378606
111	0xbf03548e	-0.51300895
112	0xbf05a33b	-0.52202195
113	0x3d858808	0.065200865
114	0xbf1789f3	-0.5919487
115	0xbf3cb1d4	-0.73708844
116	0xbe9262c7	-0.28590986
117	0x3f156cc4	0.5836909
118	0xbe6e5ec3	-0.23278336
119	0x3edfe7f7	0.43731663
120	0x3e28c107	0.16479884
121	0x3f5521ff	0.83255
122	0x3f238f82	0.6389085
123	0xbed48d1d	-0.4151391
124	0xbf28ca43	-0.65933627
125	0xbf161b8c	-0.58635783
126	0xbe09c20d	-0.13452931
127	0x3e4a89cd	0.1977913
128	0x3f23bde7	0.63961643
129	0x3f07937f	0.52959436
130	0xbea2b8b4	-0.31781542
131	0x3f35fb0d	0.710862
132	0x3f64ccee	0.893752
133	0xbd5acf1d	-0.053420175
134	0x3ef4c218	0.47804332
135	0x3ea6b44d	0.32559434
136	0xbecf4510	-0.40482378
137	0x3ea1a851	0.31573728
138	0x3dde9e37	0.10870021
139	0x3f0c7038	0.5485873
140	0xbef3a58a	-0.47587234
141	0xbef09755	-0.46990457
142	0x3f0bad0d	0.5456093
143	0xbdbbe67a	-0.09174819
144	0x3ee20bf8	0.44149756
145	0x3f21c47c	0.63190436
146	0x3deff6b0	0.11716974
147	0x3d17fa0b	0.037103694
148	0xbec0a20a	-0.37623626
149	0xbe50bb15	-0.20383866
150	0x3e8518ec	0.25995576
151	0x3e075eaf	0.13219713
152	0x3f0642a2	0.52445424
153	0xbf0b7a2a	-0.5448328
154	0x3e9f50bb	0.3111628
155	0xbf18829f	-0.5957431
156	0xbee3cdc8	-0.44492936
157	0xbed8e946	-0.42365474
158	0x3f585b61	0.84514433
159	0xbe4765ef	-0.19472478
160	0xbf72fe72	-0.949195
161	0x3d1442d4	0.036196545
162	0xbed42a73	-0.41438636
163	0x3ea6b273	0.3255802
164	0x3ccbef66	0.024894428
165	0xbf78f734	-0.972522
166	0xbeca9ef7	-0.39574406
167	0xbf0e2267	-0.55521244
168	0x3f75df69	0.9604402
169	0xbeb7a1e2	-0.35865694
170	0x3d6c8215	0.057741243
171	0x3f1e4b53	0.61833686
172	0x3e7d8b3d	0.24760146
173	0xbf1b9b01	-0.6078339
174	0x3ec3b778	0.38225913
175	0x3edfdecb	0.43724665
176	0x3e0b8549	0.13625063
177	0x3f09bdc5	0.5380519
178	0xbed45557	-0.4147136
179	0x3eb39bce	0.35079807
180	0x3f22ed23	0.6364309
181	0x3f48b8c2	0.7840692
182	0x3ef2333a	0.47304708
183	0x3f5c363b	0.8602025
184	0xbeaf1a3d	-0.34199706
185	0xbe847c3b	-0.2587603
186	0x3f1e0021	0.61718947
187	0x3eb4dbd3	0.35323963
188	0xbf2c0806	-0.6719974
189	0xbe9c0520	-0.3047266
190	0xbef31aae	-0.47481292
191	0xbee61dd7	-0.4494464
192	0x3f108568	0.5645356
193	0x3ec1cc72	0.37851292
194	0xbd450411	-0.04809958
195	0xbf0605e1	-0.5235272
196	0x3f1a3709	0.60240227
197	0x3e60ba13	0.21945982
198	0x3f2a53e3	0.6653425
199	0x3f18021e	0.5937823
200	0x3d8cb1f0	0.068698764
201	0x3f4641fb	0.7744443
202	0xbe95165f	-0.2911863
203	0xbe8cfc23	-0.27536115
204	0x3c844d82	0.01615024
205	0x3f04bc28	0.51849604
206	0xbf53154f	-0.8245439
207	0xbef7a3f5	-0.48367277
208	0x3ecfd7ca	0.4059432
209	0x3e9ffc8f	0.31247374
210	0x3ead1176	0.33802384
211	0x3e24bccb	0.16087644
212	0xbe4577f9	-0.19284047
213	0xbdd18b97	-0.10231703
214	0x3ee26d88	0.4422419
215	0x3eaa1edd	0.33226672
216	0x3ef414da	0.47672158
217	0x3f350f91	0.7072688
218	0x3d53dbcf	0.051723298
219	0xbe4d6367	-0.2005745
220	0xbf0324d1	-0.5122805
221	0x3e1099e4	0.14121205
222	0xbe27a993	-0.16373281
223	0xbf313aa2	-0.6923009
224	0xbf2ec482	-0.682686
225	0x3f2eb7ac	0.6824901
226	0x3f251d4d	0.64497834
227	0x3efa2d3f	0.48862645
228	0x3e637de5	0.22215994
229	0xbeb7ad9c	-0.3587464
230	0xbf1caab6	-0.61197984
231	0x3f4b66a5	0.794535
232	0x3e3843a4	0.17994553
233	0x3e9bcc83	0.30429468
234	0x3f466245	0.774937
235	0xbf0321d1	-0.51223475
236	0xbb1b2720	-0.0023674443
237	0xbf62a14e	-0.8852738
238	0x3f603937	0.875873
239	0x3e88d499	0.267247
240	0x3c5be9b6	0.01342242
241	0xbeaba939	-0.33527544
242	0x3f067ca8	0.5253396
243	0x3d2a94b4	0.04164572
244	0x3f2fe911	0.68715006
245	0xbdef492a	-0.11683877
246	0xbf077982	-0.5291978
247	0xbef6facb	-0.48238215
248	0xbf492645	-0.7857402
249	0x3f0b328c	0.54374003
250	0xbf0542c8	-0.52055025
251	0x3c1d0c70	0.009585485
252	0x3e63953d	0.22224899
253	0x3d4b9d4d	0.04971056
254	0xbe93c8dd	-0.28864184
255	0xbed80f0a	-0.42198974

l3.bias f4 [2]
0	0x3c94921c	0.018136077
1	0xbd0bbeba	-0.034117438
